ckpt/init_low.pth (torch_old, 250453 bytes, 24 tensors)

decom.0.weight f4 [32, 3, 3, 3]
00000000: b887 043e e3a1 c9bd ee40 1b3e e2fb 01be
00000010: 339d 2fbd e2e4 cf3c 5af9 e1bd bf56 8abd
00000020: 8e46 25be 21f7 b33b cd93 b33d 4960 913c
00000030: edd9 b6bd c95b f3bb ee2e f63c 1c47 ef3d
00000040: c050 5fbd 475c fabd b4d2 18be deee f63c
00000050: bcb9 9fbd 6e59 dd3d 6df1 43be 7a2e fcbd
00000060: a095 903c 869c 60be 6b70 0bbe 166a ca3d
00000070: 461a fc3d 32b8 11be 6991 383e 75e0 09bd
00000080: 7d4f 44be fd56 9fbd 2fbf 95bb 999a 3dbe
00000090: 716c 643d 0e66 24be d0ef 273d c9c0 143b
000000a0: 0b7e a6bd dd4e 283e eaff ecbd bc4c 7a3d
000000b0: 4047 183e 1ab0 1fbe 5056 663d 6b47 473d
000000c0: 65bc 1abd 6107 1ebe e8bc 2fbd ad91 953d
000000d0: e8ce 13bb 6dac 1d3d c790 013c 4ef7 263c
000000e0: 3421 fbbd 9c44 403e 15ff 0abe f730 04be
000000f0: 178d 33bd 60a1 f93c 36fe ed3d d7a1 4c3d
00000100: 8cfa 0a3e 3e1c 5ebe d0b7 ed3d 8f10 0bbe
00000110: 4e11 cbbd 2149 be3d b259 0dbe 3565 54be
00000120: 6cef 80be 6d40 59bc b25d f3bd 7086 82be
00000130: c894 7fbd 3097 e8bc c416 443c 87cf 48be
00000140: 632f 76be 3eb2 f9bd 5343 523d 5319 253e
00000150: da84 283e 0484 493e bb07 8d3d 5529 80bd
00000160: f621 873c 4e37 fb3d 9837 b53d 0c2a 8d3d
00000170: ff3a 4dbd 6963 f63d dc1d 053e e2b8 babc
00000180: 0cee 05bd a0e4 963d 5ac7 3e3e c350 fabd
00000190: 7b41 f73d 76bc e5bb 69ad 673d 8377 10be
000001a0: 3fed 63bd 53bb 0fbe 32d9 b5bd 3644 0dbe
000001b0: 944e 86bd 6ab1 013e ebd2 10be 3a25 c3bd
000001c0: f451 3c3e 6d2d 9bbd 5a68 083e 873a 2f3e
000001d0: 2cef 44bd af98 b73d c49f e0bd ce23 cc3d
000001e0: fb7b 693d baab 2e3d 716c 68be 2e9a 26be
000001f0: cc3d 46be eaec 3bbc c4d7 363e 0c81 cb3d
00000200: 0bf1 97bc 5ace bfbd e17e f83d 23a7 333e
00000210: 6d3e abbc 3e9c 803d 8173 adbd f6bd 083d
00000220: 6080 943e 3be1 1a3d f720 ff3d fb1f 2b3e
00000230: ffa1 ea3d 7cea 39be c289 7dbd f1f0 403d
00000240: 0308 2bbe 69a0 f43d 010b 52be edc9 e1bd
00000250: e505 a9be efb1 30bd 7d71 41bd f789 713c
00000260: 16ef 31be 3953 e9bd c354 83bd 16d8 76bd
00000270: 68b2 16be ac20 823c a35e 953c 4e23 b43d
00000280: 7f55 563e cc0a 523e e9e2 603e df9f acbb
00000290: 9964 273e f617 ae3d 1a11 6bbe b53b 94bd
000002a0: 474c cabd 9d82 e3bd 9586 4dbd 853f 173e
000002b0: 7132 a3bd bb26 433e a257 eb3d a613 0cbe
000002c0: 0650 af3b c43b cfbd e445 293e 3fe0 c7bd
000002d0: 39ba b93d cb74 d33d d1e6 a0bd b2e1 45be
000002e0: 1b70 053e 3e53 54bd b3f3 52be d4dd c2bd
000002f0: 7cac d83d ca68 4dbd 9d52 433e f5a8 14be
00000300: e256 23be 5504 3cbe 81b0 cdbd 71b2 133e
00000310: 8b4b 1ebe e542 a9bd d188 ccbd bb72 abb8
00000320: a0b8 0abe 7772 1bbe 7913 fabd d6b8 ed3b
00000330: 8e14 0c3e 356b 643d 32ae b6bd 333b d7bb
00000340: 888f 17bd 9ed3 83bc fbc5 553d b09f 27be
00000350: 0457 bb3c e7dc 143e 28e3 eabb d95a 27bd
00000360: 08a4 f1bd 6327 0f3e f307 c2bd 8bb4 353e
00000370: 0c61 d9bd b83c a03d 5753 163e 43d8 debc
00000380: 3d70 853d ceda 4dbd 339f 0abe 7805 aabd
00000390: b1c0 15be 4c69 a3be e860 02be 8369 423d
000003a0: c013 bb3b c606 09bc e4a5 10bd d05d e13b
000003b0: e270 cb3d b73a 3e3d 61c3 e8bd 0ad6 673e
000003c0: 59d2 69bd e55a ef3d 3c6c c63d 4f4c b53d
000003d0: 71c0 1bbd 5a68 523d 760a 683d c24d 6e3e
000003e0: 9a1b 88bd 0868 f0bd 19e6 303e ee9b 1e3e
000003f0: 820d dd3d 5b56 223e 7623 6dbe bdc4 5dbe
0.12942398 -0.098453306 0.15161487 -0.12693742 -0.042874526 0.025377695 -0.11033888 -0.06754827
-0.16140196 0.0054921065 0.08768425 0.017746108 -0.08928285 -0.007426713 0.030051675 0.11683485
-0.05452037 -0.12224632 -0.14924127 0.030143198 -0.07799098 0.10808073 -0.19135065 -0.12313552
0.017649472 -0.21934709 -0.13617103 0.098835155 0.12309699 -0.14230421 0.1802422 -0.033661325
-0.19170947 -0.077802636 -0.00456991 -0.18516006 0.05576748 -0.16054556 0.041000187 0.0022697917
-0.081295095 0.16436334 -0.11572249 0.061108336 0.1487093 -0.15594521 0.056234658 0.048652094
-0.037777323 -0.15432502 -0.042904764 0.07303176 -0.0022553746 0.038494516 0.007908053 0.010190798
-0.12262192 0.18776172 -0.13573869 -0.12909304 -0.043835726 0.030472457 0.116207525 0.04995903
0.13572139 -0.21690461 0.11607325 -0.13580535 -0.0991541 0.09291292 -0.13803747 -0.20741732
-0.25182664 -0.013259989 -0.11883105 -0.25493193 -0.06239775 -0.028392404 0.011968318 -0.19610415
-0.24041514 -0.121922 0.051333737 0.16122942 0.16456929 0.19679266 0.0688624 -0.062578835
0.016495686 0.12266408 0.08848494 0.068927854 -0.05010509 0.1203068 0.12999672 -0.022793237
-0.032697722 0.073678255 0.18630734 -0.12222435 0.12073036 -0.0070109917 0.05656186 -0.1410809
-0.055646177 -0.14036302 -0.08879317 -0.13795552 -0.06557956 0.12665334 -0.14142959 -0.09528585
0.18390638 -0.07577024 0.13321057 0.1711217 -0.048079655 0.08964669 -0.10967973 0.09967767
0.057003003 0.04264424 -0.22697617 -0.16269752 -0.19359511 -0.011470059 0.17855746 0.09936723
-0.018547555 -0.0936553 0.12133575 0.17544226 -0.02090379 0.06279801 -0.08469296 0.033384286
0.29004192 0.037812453 0.124574594 0.16711418 0.114566796 -0.18155855 -0.061898954 0.04710478
-0.16702275 0.11944658 -0.2051201 -0.110248424 -0.3301231 -0.04313844 -0.04722737 0.014742366
-0.1737636 -0.113928266 -0.064126514 -0.06026467 -0.14716494 0.01588472 0.018233603 0.08795796
0.20931052 0.20511931 0.2196156 -0.0052680816 0.16346969 0.08500664 -0.22955742 -0.07237951
-0.0987783 -0.11108897 -0.050177176 0.14770325 -0.07968605 0.19057743 0.11491324 -0.1367937
0.0053501157 -0.10118821 0.16530567 -0.097595684 0.09068722 0.10325011 -0.07856525 -0.19324377
0.13031046 -0.0518372 -0.20600776 -0.095149666 0.10579774 -0.050148763 0.19074483 -0.14517577
-0.15951112 -0.18361028 -0.10043431 0.14423539 -0.15458505 -0.08264712 -0.09987033 -8.1752856e-05
-0.13546991 -0.15180384 -0.12210745 0.0072547 0.13679716 0.055766303 -0.08919944 -0.0065683364
-0.037002116 -0.016092118 0.052190762 -0.1636951 0.02286864 0.14537393 -0.0071681924 -0.040858123
-0.117988646 0.13979869 -0.094741724 0.17744653 -0.10614213 0.07824081 0.14680229 -0.027202731
0.065155484 -0.050257497 -0.13537292 -0.08301824 -0.14624287 -0.31916273 -0.1273228 0.047463905
0.0057091415 -0.008363431 -0.035314456 0.0068776384 0.0993364 0.046442714 -0.113653906 0.22640243
-0.05708537 0.11687259 0.09688613 0.08852445 -0.038025323 0.05136905 0.0566506 0.2327185
-0.066458896 -0.117385924 0.17275275 0.1548917 0.10793592 0.15853254 -0.23158059 -0.21657081

decom.0.bias f4 [32]
00000000: 21d1 cd3d 3c49 72bd bcde 933c 0c66 55bd
00000010: eb59 c73d 1c51 0e3d d511 8abd b072 c9bd
00000020: 1957 ae3b 0ea6 d63b fb47 083d fb6f c1bd
00000030: 6c3c 573c 801b fd3c aa04 153d c912 e8bd
00000040: d4fc dc3c ffa4 5f3d 4893 4ebe 9d5c a5bd
00000050: 7131 563d 1da4 203b cc15 f53c 8990 573d
00000060: 073c 023d 74e6 283d 2a85 9f3c dcb6 933c
00000070: d2f5 993d e717 26bd ed83 ab3c 9870 023d
0.10049654 -0.059151873 0.018050544 -0.052099273 0.09733947 0.03474532 -0.067416824 -0.09836328
0.0053204414 0.006550557 0.03327177 -0.09445187 0.013136964 0.030896902 0.0363814 -0.11331708
0.026976027 0.054600712 -0.20173371 -0.08074305 0.052293245 0.0024511882 0.02991762 0.052628074
0.031795528 0.041235402 0.019472677 0.01803153 0.0751759 -0.04055014 0.02093693 0.03184566

decom.2.weight f4 [32, 32, 3, 3]
00000000: 1160 863d fea8 8c3d 2d40 bbbd 8358 d3bd
00000010: 5f3c ec3b 4893 04bd 7e40 98bd b6dc 98bd
00000020: ba8f 77bd 936f 013d 6795 6f3d d5e4 cf3a
00000030: a129 a9bc 05fb c93c 7814 a3bd d960 78bc
00000040: e01f a0bd 64f8 e3bc 27b3 92bd 12bb dfbd
00000050: 14ed 23be 5e64 60bc 3747 8cba 5d4e 5bbe
00000060: 7036 fabd fd93 58be 0f73 85bd 0bda 33bc
00000070: 0431 80bd 47f5 37bc c999 92bd 0189 0dbd
00000080: 4ec7 86bd b55e 26bd 4d73 24bd 15f5 d2bc
00000090: 4acc 433d a62e efbc 1fc7 803c 5900 8c3c
000000a0: e631 52ba 42a2 18bd 458a 943d 944b 353d
000000b0: a8e2 9abc 1acb 5c3d 3b60 1a3e 0b1a be3d
000000c0: 154f 813d aaad 053e 8a4d 133d 5767 89bd
000000d0: 2d0e 45bd a646 fbbc 62ae b03c 3c07 a1bc
000000e0: 5a5d 4cbc 48f1 81bd 9482 8b3a e2bc 8fbd
000000f0: 7c1e ea3b 7075 d1bc 2e9b 7abc dd39 783d
00000100: 9bbe 083d 245e 313d 2837 b63c d191 e93c
00000110: 7645 6a3d 6c5c 7c3d af3c a3bd 9a6c 213d
00000120: 6a22 db3c 1860 1f3d d6e4 52bd 3fa4 8b3b
00000130: 6cee e03b fbe1 1e3c 6126 f33c 148b 383d
00000140: 2e18 18bd 5aad 8cbd 30fc eebd 8caa 9f3c
00000150: a2e9 05ba b7f4 a53c d970 3f3a d946 463b
00000160: 2f24 92bd d93e 85bd 13b2 aabd 4c48 59bd
00000170: c438 bebd 91f8 923c 7321 543b 0eb8 39bc
00000180: 5370 00bd 633e 23be 0624 e6bd d53a c7bd
00000190: a55e c7bd 9829 96bc 2db7 1e3d 381c 77bd
000001a0: 046f 143d 6c51 da3c 91d7 7abd 5d12 903c
000001b0: dfe0 8dbd 02a5 ebbc d5bc 17be 6c61 a2bc
000001c0: fe37 493d f9e2 493d 3800 243d c6ce ea3c
000001d0: 4f94 973d 412d 213d 5f2b 9cbb 5577 0f3d
000001e0: fdf0 953d 623c 5fbd ab23 1f3d 0cb0 5f3d
000001f0: 0530 a33d 05c6 9f3d 696c 9abd a1f4 2cbb
00000200: 6183 e6bc 7b66 903d 01ef 883c f307 753c
00000210: e1bc 9b3c 38ee 3c3e baf4 333c bff5 59bd
00000220: 6d35 31bb 8966 14bd 1465 f3bd 0cf2 d6bc
00000230: 2a29 84bd b6e9 6cbb f7b3 cbba 9e6d 2ebd
00000240: 6965 ffbc fe09 033c d617 9ebd 3b91 f33d
00000250: b527 1a3d 3865 e4ba bd26 62bd 0129 9abd
00000260: 3569 aebd 46f3 203c 7567 003b 1e59 963d
00000270: 2b52 df3b 7b56 8c3d 48be d23b c915 18bd
00000280: 4614 653c e1d4 103c 6ca4 cfbd 06d6 05be
00000290: 981b 2fbd 2dca 513c 6744 adbd 08fd b9bd
000002a0: e6f7 62bc 2e19 513b 96f4 e4bc 5e70 4fbb
000002b0: bb48 dabc 7b3a 933a 94f0 36bd 8bf2 ec3c
000002c0: 3411 883d c07f 14bd d10e 4f3d 765f 183d
000002d0: 1aec cdbd 41d5 2cbc 1048 81bd 7bc4 6bbc
000002e0: 3050 d2bc 5ac0 0cbd acbf 1cbd dea2 c6bd
000002f0: 633c 22be c231 343d 4a0a c5bd 56d8 58bd
00000300: 76cb bebd 8238 4cbd 564a 64bd 8fcb 2ebd
00000310: 7fa0 093d 66df acbb 1272 b1bc 6354 c13d
00000320: 5f48 703d 7bc2 5d3d 8be3 253d c33b e4bc
00000330: ef8f eabc 1cd3 c13d 42d6 303e fc34 b03d
00000340: 0e33 033e 7558 043c 7d57 8c3c c6d3 1b3e
00000350: 5ec0 313c 17be 19bc e327 3c3d fef3 dbbc
00000360: 2958 45bc 40ce 82bd c208 88bd 7b40 bc3c
00000370: 07d5 1c3c fa83 043d 4099 cd3d af34 ec3d
00000380: 6592 10bd 4e59 84bc 06ab 773d 206a 36bd
00000390: 734a 55bd a850 af3d 3017 6ebd 2b6a a13c
000003a0: 7a2f 56bd 221a efbd f7a7 acbd 1019 d3bd
000003b0: 611e 63bd 8b6d 06bd aed2 8bbd cd11 9fbc
000003c0: 1438 a0bc 5aa7 843c e84c 64bc 689c 8bbd
000003d0: a377 173c ed67 063d a6e2 22be a654 75bd
000003e0: 7a32 a3bd 76e8 50bd 9f51 dfbd 4b10 113d
000003f0: 2a66 9abd acf3 23bd 8ab6 a33c 5ca8 3fbc
0.06561292 0.0686817 -0.091431 -0.10319617 0.007209345 -0.03236702 -0.07434176 -0.07463972
-0.060439803 0.031600546 0.05849209 0.0015861044 -0.020649733 0.024655828 -0.079628885 -0.015159809
-0.0781858 -0.027828403 -0.07163077 -0.10924353 -0.16008407 -0.013695804 -0.0010702376 -0.21416612
-0.122174144 -0.21150203 -0.06516086 -0.010977278 -0.06259349 -0.011227912 -0.071582384 -0.034554485
-0.06580983 -0.040617663 -0.040149022 -0.02575163 0.047802247 -0.029197048 0.015719948 0.01709001
-0.00080182997 -0.037264116 0.07252935 0.04426153 -0.018906906 0.05390463 0.15075772 0.09282311
0.06313912 0.13054529 0.03596262 -0.06709164 -0.048109222 -0.030673336 0.021567527 -0.01965677
-0.012473429 -0.06344849 0.0010643774 -0.070184484 0.0071447473 -0.025568694 -0.015295787 0.060602058
0.0333849 0.04330267 0.022243097 0.028511913 0.05719515 0.061611578 -0.07970559 0.03941021
0.026749808 0.03891 -0.051487766 0.004261523 0.0068643596 0.009697433 0.029681386 0.04505451
-0.037132435 -0.06869002 -0.11669195 0.019490503 -0.00051083614 0.02025829 0.00073028874 0.003025463
-0.07135808 -0.06506128 -0.08334746 -0.053047463 -0.09288171 0.017940791 0.003236857 -0.011335386
-0.03135712 -0.15941767 -0.1123734 -0.09728018 -0.09734849 -0.01833038 0.03874891 -0.060329646
0.036238685 0.026650153 -0.061240736 0.017586881 -0.069276564 -0.028765205 -0.14818127 -0.019821845
0.049125664 0.049288724 0.04003927 0.02866305 0.074013345 0.039349798 -0.0047659124 0.035025913
0.073213555 -0.054500945 0.038852375 0.05461125 0.079681434 0.07801441 -0.07540209 -0.0026390927
-0.028138818 0.070507966 0.016715528 0.0149555085 0.019010963 0.18450248 0.01098364 -0.053212877
-0.00270399 -0.036230598 -0.118845135 -0.026238464 -0.06453164 -0.0036150045 -0.0015541305 -0.042585008
-0.031176286 0.007997988 -0.0771939 0.11892935 0.037635524 -0.0017425185 -0.055212725 -0.07527352
-0.085161604 0.009823626 0.0019592915 0.073412165 0.006815215 0.06852432 0.0064313747 -0.03713015
0.013981884 0.008839817 -0.10138783 -0.13069925 -0.042750925 0.01280455 -0.08460312 -0.09081465
-0.013853049 0.0031905877 -0.027948659 -0.003165267 -0.026646009 0.0011232638 -0.044663027 0.028924247
0.06643906 -0.036254644 0.05055124 0.037200414 -0.100547984 -0.010548891 -0.06312573 -0.014390106
-0.025673002 -0.03436313 -0.03826873 -0.09699033 -0.15843348 0.043992765 -0.09621103 -0.05294069
-0.09316151 -0.049858578 -0.055734955 -0.042674597 0.033600327 -0.0052756546 -0.021660838 0.094399236
0.05866277 0.05414055 0.040500205 -0.027860528 -0.028633086 0.09464094 0.17269233 0.08603856
0.12812445 0.00807773 0.017131561 0.15217504 0.010849087 -0.0093837 0.045936476 -0.026849743
-0.012044945 -0.06386995 -0.066422954 0.022979965 0.009572274 0.032352425 0.10038996 0.11533486
-0.035295863 -0.016155865 0.060465835 -0.044534802 -0.052072953 0.08560306 -0.058127582 0.019703945
-0.05229137 -0.11674906 -0.08430474 -0.10307515 -0.055448893 -0.032819312 -0.06827293 -0.019417668
-0.01955799 0.01619308 -0.0139343515 -0.068169415 0.009244832 0.032813955 -0.15906772 -0.05989518
-0.07968612 -0.051002942 -0.1090424 0.03541593 -0.075390175 -0.040027305 0.019984502 -0.011697855

decom.2.bias f4 [32]
00000000: b042 213b 4e60 cdbc 63ef 1a3c e1ce c53d
00000010: 4203 6d3d 58d5 6a3d 8777 423d e882 b5bc
00000020: 02df 3e3d aaf4 cbbd f692 443c 51fc 1e3d
00000030: 58d2 163d 9c91 323c 6c5e 8ebd 4c1a 08bd
00000040: 63ef d2bc c617 1a3d f858 55bd 36fe 303b
00000050: 5d81 6f3d 025d 82bc 6b59 48bd 228d 973d
00000060: eb6c 193d 9ad6 593d d637 a83d 20e1 18bb
00000070: fdc0 86bb d57d 163c fc70 873b a68a 303d
0.00246064 -0.025070336 0.009456488 0.096586 0.057864435 0.057332367 0.04747727 -0.022157148
0.046599396 -0.09958775 0.011997929 0.038814846 0.036821693 0.010898974 -0.06951603 -0.033228204
-0.025748914 0.03762033 -0.0520868 0.002700699 0.05847298 -0.01591349 -0.0489134 0.07399966
0.037457388 0.053183176 0.08213775 -0.0023327544 -0.0041123615 0.009185274 0.004133342 0.043100975

decom.4.weight f4 [32, 32, 3, 3]
00000000: 5591 efbc ae29 153d 3212 86bd f32c f13c
00000010: 8fbe 5fbb b9fc e23c 8807 e5bc e88e 6a3d
00000020: 13dd 12bd 3e5d 2fbd 24ad 9cbd 8597 0a3d
00000030: 7490 5e3e 7fa8 3a3e db8f 7439 efe6 9bbd
00000040: cad2 8e3d cbfc c73b d248 313d e680 aa3d
00000050: c8e2 c73c 1630 fcbd a491 85bb 5952 113e
00000060: 8116 61be 29bb 2bbd 27a4 303e 648a 60bd
00000070: 4cf5 87bd 4e4f a0bc a4f9 febc 71cc 993e
00000080: e257 e4bc 1ae6 943d af39 67bc c39f b83d
00000090: 1ade 33bd 7a2c b73c 5c25 4abd 1694 bd3c
000000a0: 9c43 8b3c e451 36bc 972d 54bc 12d1 a83b
000000b0: cf3b 7a3c c330 6ebb 7d4a e83b 51da 41bc
000000c0: 6069 32bd 2609 8a3c 3b82 073d 031f 5dbd
000000d0: d960 c73a a803 893c a55b 0dbe 2773 0a3e
000000e0: 2168 393b b72c 853d 6199 833e b9ca cfbd
000000f0: c1ca fdbd 3aa0 35bd 197b 10bd 7f71 02bb
00000100: 9a8a 2b3d 9d18 3dbc 0069 da3c d4ab 93bd
00000110: dbd0 903d e265 05bd 3558 10be ba5e edbc
00000120: 7580 db3d 02a4 553d 5e0e 9c3d 5b9f 36be
00000130: 9e9e 27be 16ca e2bd 21c5 debc 041b e8bd
00000140: 4e8c 513b 5553 b0bd b023 2bbd 34ce f2bd
00000150: a9eb a7bd 4dad 4abd 0de1 87bd cf3d 91bc
00000160: ef5f 67bc 87f3 8a3b 9c3a 3f3d d8f3 b33c
00000170: 74f4 603d f6be 043e ff24 773e c7a1 353e
00000180: d5c5 87bd cd35 80bd 610c cfbc 23e3 803d
00000190: a258 eb3c 466c a7bd 904e a23c 8e8f cfbb
000001a0: cb9b d7bc 8d2d 57bc df4e 993d eb81 06bc
000001b0: 2aab 8b3d d187 20bc 7721 e63c 709f 2f3d
000001c0: e31d 1cbd 5ae6 a03b 0938 df3d f736 343e
000001d0: 14b8 873c 6741 ffbd 2876 903b a996 54bd
000001e0: 74e0 f0bd 1a1a bdbe 1c48 56bd 58ba c0bd
000001f0: 9c0d 52be cf66 70bd 019d 593d 1ebd 78bc
00000200: ba79 01bb 7ac0 0e3b 81ed 5bbc 4862 043d
00000210: 1645 2c3d 1ac4 b63d 0321 983d e994 cbbd
00000220: 694b a73c 0f71 c23a d304 af3b fc81 acbd
00000230: 5f55 5dbd 73a8 8e3c 0695 913c 47f1 0fbd
00000240: 8735 90be fcc1 55bd 700d 47bd 3a07 533e
00000250: 630a 85bc c903 1b3d 3e29 01bd 6969 453e
00000260: 1ca6 17bd f320 a7bd 2a0a 063d 8d69 c0bc
00000270: 5f1c b33d 0ea2 4d3e 8727 7dbc 599f d0bb
00000280: 44ae 113e cceb 54bd d089 34be 22a5 abbd
00000290: 78ac 22bd 5848 353e 7edf 8b3d 45d3 48bd
000002a0: 4469 00bd d0d5 92bd 429d 88bd ab66 20bd
000002b0: 46f0 fbbd 6379 c1bd 09de 4abd 4959 cd3c
000002c0: fb60 cf3c dc81 133c 7715 3a3e 99f1 843d
000002d0: cf83 a7bd 8e2e 2b3e a8b5 52bc ec34 bf3e
000002e0: 8220 e93e a07b be3b 8ee5 eebd 929b 243e
000002f0: c29c 26bd 4a5f 2d3e 9fd2 cfbd bf96 dc3d
00000300: 0d9e 0fbe e264 313d 0369 30bd 3a51 02bd
00000310: b8f5 e4bd 19b2 553b 635e 22be 9659 fe38
00000320: b638 17bd 70af f23d e596 e43d 970c e3bc
00000330: 1869 66bd 89a9 273d 0313 033d f641 8ebc
00000340: 3d3f a03d ddc0 523b 791f 363d ee02 133d
00000350: 5e47 4d3d 095a 46bd 0cce 0cbd f329 323d
00000360: 6af2 403d 644b 9b3d dd4f 79bd 074d 75bd
00000370: ae19 a4bd de47 ccbd 5595 483c d619 1d3e
00000380: 63db 263c 7a3c 4b3d 99c8 833c 7ef3 063d
00000390: aa59 1abe aa0d 40bd bad1 653d 4496 c93b
000003a0: 61d7 edbd f70a 8f3d 6631 42bd 60b1 f63c
000003b0: bb1e bcbc 58c9 003d 34e5 8ebd 2304 b5bd
000003c0: 8905 823d e7e8 8b3d f5b5 2f3c 33a2 44bc
000003d0: 0fd4 b63c f6df 8cbc 08ea 4c3d 9cd0 723d
000003e0: 1a45 013c a9c0 983d 9e09 a83d fdbf 953c
000003f0: dd9b 84bd 4c57 5dbd 9330 733a 86b6 433d
-0.029244104 0.036416702 -0.06546439 0.029440379 -0.0034140681 0.027708398 -0.027957693 0.057265192
-0.035855364 -0.042813532 -0.076502115 0.033835907 0.21734792 0.18228339 0.00023323244 -0.076124065
0.069737986 0.0061031333 0.043282337 0.08325367 0.02440013 -0.12313859 -0.0040761996 0.1419157
-0.21981241 -0.041926537 0.17250119 -0.05481948 -0.066385835 -0.019569065 -0.031124897 0.3003879
-0.027873937 0.07270451 -0.014112874 0.09014847 -0.043912984 0.022360075 -0.049352035 0.023141902
0.017000012 -0.011127923 -0.012950323 0.0051518762 0.015273049 -0.0036344982 0.007088958 -0.011831836
-0.043557525 0.016850065 0.03308318 -0.053984653 0.0015211358 0.016725376 -0.13804491 0.1352049
0.0028290825 0.06502669 0.25702956 -0.10146088 -0.12392188 -0.044342257 -0.035273645 -0.0019904075
0.041880228 -0.011541513 0.026661396 -0.07210508 0.07071086 -0.032567866 -0.14096148 -0.028975833
0.107178606 0.052158363 0.07619928 -0.17834227 -0.16369101 -0.11073701 -0.027193608 -0.11333278
0.0031974497 -0.08609644 -0.04178208 -0.118557364 -0.081992455 -0.04948168 -0.06634722 -0.017729668
-0.014121993 0.0042404565 0.046686754 0.02196686 0.05492063 0.12963471 0.24135207 0.17737494
-0.0662953 -0.06260262 -0.025274457 0.06293323 0.028728787 -0.081749484 0.019812852 -0.0063342517
-0.026319405 -0.013133419 0.074857466 -0.008209686 0.06819756 -0.009798006 0.02809213 0.04287666
-0.03811444 0.0049102725 0.1089936 0.17599092 0.016567267 -0.124636464 0.0044086166 -0.051901493
-0.11761561 -0.36933976 -0.052314863 -0.09410542 -0.20513004 -0.058691796 0.053128246 -0.015181808
-0.0019756393 0.0021782205 -0.013423325 0.03232029 0.042058073 0.08924122 0.074281715 -0.09940512
0.0204217 0.001483472 0.0053411513 -0.0842323 -0.054036494 0.017414307 0.017771255 -0.03514221
-0.28165838 -0.05218695 -0.0485968 0.20608225 -0.016240304 0.037845407 -0.031533472 0.19278492
-0.03702365 -0.081605814 0.032724537 -0.02348783 0.08745646 0.2008135 -0.015451319 -0.006366652
0.14226633 -0.051982686 -0.17630696 -0.08381106 -0.03971526 0.17703378 0.06829737 -0.049029607
-0.03135039 -0.07169688 -0.066706195 -0.03916041 -0.12301688 -0.09446981 -0.049528155 0.025066989
0.025314799 0.009003129 0.1817225 0.064913936 -0.08179437 0.16716978 -0.012860693 0.37345064
0.45532614 0.005813077 -0.11664878 0.1607497 -0.04067684 0.16930881 -0.10147595 0.1077094
-0.14025135 0.0433091 -0.043068897 -0.031815745 -0.1117968 0.0032607375 -0.15856318 0.000121283505
-0.03691932 0.11849868 0.11161593 -0.027715964 -0.05625257 0.040933166 0.032000553 -0.017365437
0.07824562 0.0032158413 0.04446361 0.035891466 0.05011689 -0.048425708 -0.03437619 0.043497037
0.047106184 0.07582739 -0.06086718 -0.059887912 -0.080127105 -0.09974645 0.012242635 0.15341887
0.010184142 0.04961822 0.016086863 0.032947056 -0.15073267 -0.04688803 0.056108214 0.0061519463
-0.11613346 0.06984513 -0.04741039 0.030113876 -0.022963872 0.031442016 -0.06977311 -0.0883868
0.06348712 0.06831532 0.010724534 -0.012001562 0.022317914 -0.017196637 0.050027877 0.059280977
0.00789001 0.07458622 0.08204959 0.018280024 -0.06475041 -0.05403833 0.00092769525 0.04778149

decom.4.bias f4 [32]
00000000: 2ef2 8fba 5101 e53d ea9a 2ebb bf72 0dbd
00000010: 23f5 9dbd 011e d83d 22dd 813d 3b39 c6bc
00000020: ed11 f9bc ef64 b13d 6dc2 223d 6d69 95bc
00000030: 3c5b a73d 5e6f 88bc 2953 043c 73f8 03bd
00000040: 5c23 b43d 434c 0e3b 0617 fcbc 6cbd 9abd
00000050: d99d c73c 8a5c c73c 965b 383d 857e cf3d
00000060: 2c2b 553d 6081 d13d d1f1 9a3d 0d5c 3fbd
00000070: 7f63 653d afd4 a53d 9de9 9b3b debd 84bd
-0.0010982209 0.11181892 -0.002664263 -0.03453326 -0.07712772 0.10552598 0.06341006 -0.024197211
-0.030404055 0.0866183 0.0397362 -0.018238747 0.081716985 -0.016654667 0.008076468 -0.03221936
0.08795807 0.0021712936 -0.030772697 -0.075556606 0.02436726 0.024336118 0.04500922 0.101315536
0.052043125 0.102297544 0.07565654 -0.046718646 0.05600309 0.08097207 0.0047580735 -0.06481527

decom.6.weight f4 [4, 32, 3, 3]
00000000: 2411 153c 0875 82be 295a 4ebb 1a45 4cbd
00000010: e48f 69be 2022 b6be 07b8 2a3b d990 95bd
00000020: af19 373e 6898 dbbe 38cc fc3d 4111 26be
00000030: c82f 293d 8e42 503f 65b9 41be 8843 2fbe
00000040: 086e b2bd e358 393e 26d4 54bd c7bb bebc
00000050: fd57 1cbd 6f3e 633c e467 ee3a ea33 b0bc
00000060: 1c71 79bd eee9 b03b 645e 3abd 2897 45bd
00000070: 65fd 9fbd 18a0 1bbd f1b8 59bc ff5f 4ebe
00000080: 81e9 efbc eb9f bcbc 2b71 c2bd 8f81 93bc
00000090: a830 593d 7555 39be 25d9 c93c 1737 dfbc
000000a0: ed1e f2bc a05f 993d f368 65bd db7d ad3d
000000b0: ef67 9abc 78fd 39bc afaa 903e ef44 3bbe
000000c0: 2626 a83e 06ad 8dbc 0e81 75bd 7c66 083d
000000d0: 99cb ef3d 44c7 103d 4260 90bc d058 9e3d
000000e0: a337 f5bc 649e 0c3e 306c 5e3e 14c7 df3d
000000f0: 5676 973d d24b 213e 1eb4 57bd 96b9 833d
00000100: 86df 04be 0b5d 4c3e 4a9b 47bd 5eb6 92be
00000110: 35b2 4cbe a810 a33d 8d3c 51be 8bb7 ba3d
00000120: 923e fd3c d8f5 05be accb 0cbb 721e 74be
00000130: dedd 18be 0241 3ebd ee91 52be 7611 91be
00000140: 28b4 d5bc e87b 8f3d 4a3c 973d a394 203c
00000150: a804 a93d c011 a63d e2f1 b9bc 5879 e5bc
00000160: e841 ca3d 904e 713d 3cd5 1fbd 54f5 813d
00000170: 9eae f13d baef c43b afa2 7fbd e12c 6cbd
00000180: 703c a73d 6275 c1bc a771 83bd e84d 38bd
00000190: ebb3 003c 9c21 31bd 6dbd afbd b42f 1bbd
000001a0: 585b aeba 9c8b 1cbc 5bb3 93bd e7f2 7ebc
000001b0: c018 a8bc d1bd 0e3d 16e3 8a3c 69f6 763d
000001c0: 609b 8b3c b14c 9ebc 1c3b 143d 7bb5 833d
000001d0: 7911 3b3d 58fa 4bbd c2ab 6b3d 19b4 c9bc
000001e0: 2d89 3c3d 4e11 923e 22a9 ac3d a21c 17be
000001f0: 641f 8ebe dc9d 90bd d48b 8dbd c117 24bd
00000200: 1d26 24bd 7d03 31bd 7220 bebc 0c00 82bc
00000210: a143 89bd dd95 06bd 05df dfbc 39bd a6bd
00000220: 8730 88bd 9314 06bd ecfa b4bc 9689 cfbd
00000230: 0b1e 7ebd 4663 aabc c578 23bd 9498 8fbd
00000240: 155a 89bd dcc7 8b3d 52ac 5a3b 6ec9 2e3e
00000250: 32b1 b03e 14ff 993c cdb7 a03d f240 593e
00000260: bfee edbc 5357 883d 716f f63d 8107 1bbe
00000270: 3146 40bd 70e3 e33e 7fb5 8cbe e687 32bd
00000280: 56a8 ac3c cd87 40bc b9b2 cd3d bbb1 ab3c
00000290: a7df a7bd 54ea 663d 1029 4ebe a85b 6bbe
000002a0: b18a 4ebe b77c 8c3d 9a32 223d 9962 18bd
000002b0: 36d0 afbc 17e2 fcbc 9882 a0bd d5d6 79bd
000002c0: 581f babd 4885 b6bd c2f0 51bd d404 86bd
000002d0: 73a3 34bd fe06 94bd 010d 9abd b3dd 1ebd
000002e0: 4ac1 88bb 49ae 9d3e f25f 2a3c f959 8cbc
000002f0: dac4 2abe 998c cd3d 27ee 93bd a753 baba
00000300: 3b69 33bf f17e d1bd b63c 13bd ba75 4e3d
00000310: 75cf 4ebe 3131 163d c538 e7bd 1ba9 84bd
00000320: 1b68 ee3d 92bb e23d f0b6 583e 195e 0b3d
00000330: 4a85 37bd 6a85 1d3d 2048 82bd 0ab6 653c
00000340: c23f f13d 990a d53b a22d 273e 0357 7d3e
00000350: ac5f ef3d 4a65 8f3d 9f7f 8b3d 8cb2 04bd
00000360: 1e73 bd3c 565d 09bc acd8 a33d b381 a13d
00000370: 2f51 923d d9f5 9e3d 238d 0cbd 556e af3c
00000380: 5ff0 4c3b 6f9d 0c3e 815a 06bd 295b 9d3d
00000390: 4c1e 043d 2082 843e 05b1 203e 8b4e 763d
000003a0: 9a8a 2c3e 30b3 ac3d 6c19 92bd 9629 393d
000003b0: 86dd c5bd 40e5 ac3c bc76 533e 68e0 c03d
000003c0: 70ec 8e3d 0aec 283d 5359 243d de16 a13c
000003d0: 2533 56bd c2c5 9ebd 812e e7bc d4dc b6bd
000003e0: caff 8ebb f9f9 2ebb e686 9abd 1554 97bd
000003f0: 214a 313d 008c 5dbc fb5b 8e3d 2ae8 913c
0.009098325 -0.25479913 -0.0031486845 -0.049870588 -0.22808796 -0.3557291 0.002604963 -0.07303018
0.17880891 -0.42889714 0.12343639 -0.1621752 0.041305333 0.81351554 -0.18918379 -0.17115605
-0.08712393 0.18100314 -0.051960133 -0.023282899 -0.03816985 0.013869866 0.0018188921 -0.02150913
-0.060898885 0.0053989803 -0.045500174 -0.048239857 -0.07812003 -0.037994474 -0.013288722 -0.20153807
-0.029286148 -0.023025474 -0.09494241 -0.018006114 0.053024918 -0.18099006 0.024639675 -0.027247949
-0.029555762 0.07488942 -0.05600829 0.08471271 -0.018848388 -0.011351936 0.2825522 -0.18288015
0.32841605 -0.017294418 -0.05993753 0.03330086 0.11708755 0.035346285 -0.017624024 0.077317834
-0.029933756 0.13732296 0.21720958 0.10926643 0.07395618 0.1575158 -0.052662008 0.06431882
-0.12975892 0.19957368 -0.04873208 -0.2865476 -0.19989856 0.07962161 -0.20433255 0.09117039
0.030913625 -0.13082063 -0.0021483703 -0.23839739 -0.14928386 -0.046448715 -0.2056348 -0.28333634
-0.026086882 0.07006055 0.07384546 0.009801063 0.08252841 0.08108854 -0.022698347 -0.028011963
0.09875852 0.058912814 -0.039021716 0.06345621 0.11800884 0.006010023 -0.062411007 -0.057659987
0.081658244 -0.023615543 -0.06418162 -0.044996172 0.007855396 -0.043244943 -0.08581052 -0.03788729
-0.0013302369 -0.00955477 -0.07211944 -0.015560842 -0.020519614 0.03484899 0.016953986 0.06029359
0.017041862 -0.019323679 0.036189184 0.06431099 0.04567096 -0.049799293 0.057536848 -0.02462201
0.04602926 0.28528827 0.08430697 -0.14757016 -0.27758324 -0.07061359 -0.06911436 -0.040061716
-0.04007541 -0.043216217 -0.02320883 -0.015869163 -0.06702352 -0.032857765 -0.027328024 -0.0814156
-0.06649881 -0.032734465 -0.022092305 -0.10133664 -0.06204037 -0.02079929 -0.039910097 -0.07011524
-0.06706635 0.068252295 0.003336687 0.17069027 0.3451019 0.018798389 0.07847557 0.21216181
-0.029044507 0.06657281 0.120329745 -0.15139581 -0.04694194 0.4450946 -0.2748222 -0.043586634
0.021076363 -0.011751127 0.10043854 0.020958772 -0.08196955 0.056375816 -0.20132852 -0.22984183
-0.20170094 0.06859725 0.03959904 -0.037203405 -0.021461587 -0.030869527 -0.07837409 -0.060995895
-0.090880096 -0.0891214 -0.051254995 -0.0654389 -0.04410119 -0.07227896 -0.075220115 -0.038785648
-0.0041734325 0.30797032 0.010398852 -0.017132746 -0.16676655 0.100365825 -0.07223158 -0.0014215604
-0.70082444 -0.1022929 -0.03594657 0.05040524 -0.20196326 0.036668006 -0.11290125 -0.06477567
0.1164095 0.110709324 0.21163535 0.034025285 -0.04480485 0.03845731 -0.06361413 0.014020452
0.11779739 0.0065015075 0.16326001 0.24740224 0.1168817 0.07001741 0.06811451 -0.032396838
0.023126181 -0.008384069 0.08000311 0.07886066 0.07144391 0.077617355 -0.034314286 0.021414915
0.0031271202 0.13731931 -0.032801155 0.07683403 0.032255456 0.25880527 0.15692528 0.0601335
0.16849747 0.08432615 -0.07133755 0.045205675 -0.09661393 0.021105409 0.20650762 0.09417802
0.069786906 0.04124073 0.04012425 0.019664224 -0.05229487 -0.07752563 -0.028220417 -0.08928838
-0.0043639885 -0.0026699288 -0.07545261 -0.07389084 0.043283585 -0.013522148 0.06951138 0.0178109

decom.6.bias f4 [4]
00000000: 99f7 283e 75f0 4b3e 6805 fa3d 48bd 2e3c
0.16500701 0.19915946 0.122080624 0.010665245

exp_avg f4 [32, 3, 3, 3]
00000000: 73e7 60b9 5d08 55b9 d5c6 51b9 5bc5 68b9
00000010: e330 5fb9 a2f1 5ab9 63c6 6eb9 a6a2 64b9
00000020: ddb4 60b9 c1aa 11b9 fc4a 09b9 6747 03b9
00000030: 4b50 13b9 f4b8 07b9 0946 06b9 3984 18b9
00000040: 53a1 0fb9 6164 0cb9 0188 7ab8 b6b3 52b8
00000050: 2282 40b8 1a58 7db8 63c5 42b8 75a8 50b8
00000060: 4a16 85b8 af6a 5bb8 ad55 6db8 b097 3038
00000070: 1cca 3038 1f2a 3338 0d52 2f38 91c8 2d38
00000080: debb 3238 0820 2738 db9d 2638 9285 2938
00000090: cb7b 4838 32ac 4b38 5aef 4938 ae86 4938
000000a0: 0edf 4938 63a5 4738 f850 3f38 dcbf 4038
000000b0: 8589 3d38 521b 6f38 4e50 6f38 a932 6f38
000000c0: dd0f 6f38 37b4 6d38 5def 6c38 70d9 6338
000000d0: ea66 6438 eacc 6338 7787 6739 cc8d 7339
000000e0: a608 7739 177d 6839 4526 7839 d00f 7a39
000000f0: df07 6439 aa88 7239 219f 7639 d714 7c39
00000100: 37f7 8339 3ede 8539 0e10 7e39 5240 8739
00000110: 8e5c 8839 3ac3 7a39 2eee 8439 a81d 8639
00000120: 0d3b 9a39 eea3 9f39 a11a a239 e6a3 9b39
00000130: 2937 a439 dfe4 a339 efb5 9739 cf5f a039
00000140: fc9c a139 8639 41b9 f3b9 4db9 b879 4eb9
00000150: 4c57 3eb9 73b7 4db9 22cc 4eb9 abcc 3eb9
00000160: cc9d 4bb9 ed11 4db9 30ca 58b9 e57e 66b9
00000170: f970 68b9 72a5 57b9 78ab 67b9 3847 69b9
00000180: 26e6 57b9 74cc 66b9 545e 68b9 af67 79b9
00000190: 57f1 82b9 0db1 83b9 6d3a 77b9 9888 83b9
000001a0: cb54 84b9 1bb8 78b9 7470 83b9 33f8 84b9
000001b0: 3bf2 c0b9 45a4 c2b9 0814 bfb9 88b2 c3b9
000001c0: bd73 c4b9 3464 c0b9 aa3c bdb9 0f21 c0b9
000001d0: 8b9d bcb9 b459 cfb9 a147 d0b9 cea9 cdb9
000001e0: 8860 d3b9 05da d3b9 6519 ceb9 f83d ccb9
000001f0: 75bf cbb9 2e0f cab9 aad6 e7b9 8645 e7b9
00000200: 51c8 e3b9 e56b e9b9 b866 e9b9 5d94 e4b9
00000210: 481d e4b9 1417 e4b9 396f dfb9 de35 c8b7
00000220: 76f0 20b8 4320 1bb8 eef8 08b8 df26 5cb8
00000230: 89a2 37b8 2eda 01b8 abcc 4fb8 d092 38b8
00000240: 5def e8b7 3722 1fb8 9d5b 32b8 3e79 e7b7
00000250: 4c58 15b8 6c98 2eb8 bac2 fcb7 e45a 30b8
00000260: df87 2cb8 c052 54b8 d509 7ab8 3786 85b8
00000270: 05ec 5eb8 6778 8cb8 41e7 88b8 c2ba 58b8
00000280: 19a0 87b8 9dbf 7fb8 c208 0138 fa59 0538
00000290: d769 0b38 d71f ff37 c4b1 0c38 42f3 0d38
000002a0: ba21 e137 89e4 f537 6093 f737 a30f 0438
000002b0: ccf9 0938 0792 0e38 1550 0838 dca2 1038
000002c0: f87a 1638 154a ef37 61f6 fc37 1929 0238
000002d0: 3600 0e38 cf1d 0f38 7f5d 1838 8101 1138
000002e0: 7487 1638 25b9 1d38 2fda 0238 9c1f 0a38
000002f0: 67d4 0d38 5f52 aa38 6f9f af38 684f af38
00000300: 693b af38 b8b5 b338 f272 b338 1d03 aa38
00000310: 28d4 ae38 85d4 ae38 8e97 be38 86b7 c638
00000320: e361 c438 316c c338 56cd cb38 a3d1 c938
00000330: aa2a be38 7720 c538 c967 c338 e8d8 da38
00000340: 33b7 e238 1edc df38 5e0b e038 aac4 e638
00000350: 9d16 e538 3cf2 da38 7697 e138 9bc9 e038
00000360: e1e3 67b7 6a39 69b7 43d6 58b7 3ca0 82b7
00000370: e585 81b7 7cdc 7db7 b32f 9fb7 7ec2 9fb7
00000380: 0b34 90b7 603c 38b7 4deb 24b7 2a3c 32b7
00000390: 1764 61b7 501d 36b7 7993 66b7 4e6e 92b7
000003a0: b175 88b7 097f 80b7 bd56 18b7 5583 3ab7
000003b0: f70f 19b7 b1da 6cb7 54ab 5cb7 e936 68b7
000003c0: a14a 8cb7 8e72 84b7 808b 71b7 0003 e7b7
000003d0: b25f e7b7 061b eeb7 c486 f5b7 b618 fab7
000003e0: f05b 06b8 822e eab7 bd4f 02b8 ec5c fcb7
000003f0: 1552 5bb8 d293 64b8 b09c 4fb8 90ac 61b8
-0.00021448526 -0.00020316379 -0.00020005864 -0.00022198765 -0.00021285149 -0.00020880115 -0.00022771354 -0.00021804366
-0.00021429682 -0.00013891888 -0.00013093272 -0.00012519733 -0.00014048924 -0.00012943504 -0.00012805326 -0.00014545106
-0.0001369764 -0.00013388834 -5.973131e-05 -5.023527e-05 -4.5897563e-05 -6.040195e-05 -4.6437035e-05 -4.9747952e-05
-6.346086e-05 -5.2313026e-05 -5.6584995e-05 4.210294e-05 4.21499e-05 4.2716154e-05 4.1799667e-05 4.1433206e-05
4.2613472e-05 3.9845734e-05 3.97245e-05 4.0417137e-05 4.7799007e-05 4.855934e-05 4.8145048e-05 4.8047565e-05
4.812987e-05 4.7599326e-05 4.5613357e-05 4.595505e-05 4.5189186e-05 5.7007484e-05 5.705683e-05 5.702922e-05
5.6996814e-05 5.667304e-05 5.648971e-05 5.4323522e-05 5.4455282e-05 5.431186e-05 0.00022080341 0.0002322711
0.00023558977 0.00022171844 0.0002366538 0.00023847749 0.00021746707 0.0002312983 0.00023519668 0.00024040356
0.00025170457 0.0002553332 0.00024229308 0.0002579713 0.000260089 0.00023914585 0.0002535446 0.00025580567
0.00029417165 0.0003044898 0.00030918888 0.00029686018 0.00031321615 0.00031260305 0.00028936515 0.0003058896
0.00030825275 -0.00018427343 -0.00019619595 -0.00019691035 -0.00018152333 -0.00019618664 -0.00019721736 -0.00018196057
-0.00019418373 -0.00019557001 -0.00020674686 -0.00021981781 -0.0002216733 -0.00020565631 -0.00022093754 -0.00022247143
-0.00020589735 -0.00022010674 -0.00022160384 -0.00023785116 -0.00024975344 -0.0002511818 -0.00023577521 -0.00025088037
-0.00025240178 -0.00023719708 -0.0002507005 -0.00025361925 -0.0003680157 -0.00037124954 -0.00036445283 -0.00037326314
-0.00037470265 -0.0003669575 -0.00036094087 -0.00036645724 -0.00035975533 -0.0003954895 -0.0003972622 -0.0003922716
-0.00040316978 -0.00040407493 -0.00039310302 -0.00038956082 -0.00038861824 -0.00038539752 -0.0004421969 -0.00044111552
-0.0004344606 -0.0004452161 -0.00044517755 -0.00043598088 -0.00043509365 -0.00043504743 -0.00042616742 -2.3866942e-05
-3.837092e-05 -3.6984926e-05 -3.265676e-05 -5.248829e-05 -4.3781973e-05 -3.0959192e-05 -4.9543258e-05 -4.400575e-05
-2.7768017e-05 -3.794042e-05 -4.252383e-05 -2.7593804e-05 -3.56066e-05 -4.1626787e-05 -3.0131418e-05 -4.204632e-05
-4.1134535e-05 -5.0621806e-05 -5.96138e-05 -6.366934e-05 -5.3148735e-05 -6.698147e-05 -6.52806e-05 -5.1672345e-05
-6.467122e-05 -6.097519e-05 3.0764153e-05 3.179347e-05 3.3238754e-05 3.0413195e-05 3.354416e-05 3.384357e-05
2.6837795e-05 2.9312696e-05 2.9513321e-05 3.1485815e-05 3.2895987e-05 3.3991437e-05 3.249951e-05 3.448395e-05
3.587731e-05 2.8525517e-05 3.015547e-05 3.103269e-05 3.3855635e-05 3.412162e-05 3.63267e-05 3.4572095e-05
3.5888937e-05 3.7604146e-05 3.1197615e-05 3.2931202e-05 3.3814835e-05 8.1215745e-05 8.374347e-05 8.359441e-05
8.355716e-05 8.569233e-05 8.5567954e-05 8.1068116e-05 8.336484e-05 8.3365514e-05 9.088135e-05 9.47556e-05
9.364241e-05 9.318477e-05 9.718041e-05 9.623475e-05 9.067853e-05 9.399739e-05 9.317656e-05 0.00010435452
0.00010810643 0.00010674469 0.0001068327 0.00011003886 0.00010923783 0.0001044017 0.00010757048 0.00010718704
-1.382173e-05 -1.390125e-05 -1.292449e-05 -1.5571823e-05 -1.5440348e-05 -1.5131311e-05 -1.8976489e-05 -1.9044845e-05
-1.7190372e-05 -1.0981312e-05 -9.829947e-06 -1.0623635e-05 -1.3434349e-05 -1.085487e-05 -1.3743404e-05 -1.745592e-05
-1.6267268e-05 -1.5317944e-05 -9.080101e-06 -1.1117042e-05 -9.123228e-06 -1.4117614e-05 -1.3152912e-05 -1.3841062e-05
-1.6724052e-05 -1.578897e-05 -1.4397199e-05 -2.7538743e-05 -2.7581907e-05 -2.8384395e-05 -2.9269031e-05 -2.981383e-05
-3.2033713e-05 -2.791663e-05 -3.1068677e-05 -3.0084011e-05 -5.2290114e-05 -5.4497104e-05 -4.9498572e-05 -5.380489e-05

exp_avg_sq f4 [32, 3, 3, 3]
00000000: d955 b936 8b78 be36 07a8 b936 a72c be36
00000010: f3a1 c536 14ee c036 5e66 b736 51a2 be36
00000020: 70e2 b936 5576 9d36 ddb8 a236 0b9d 9e36
00000030: 8f74 a136 ec1e a836 333b a436 c063 9b36
00000040: eca4 a136 85a7 9d36 1e3f 8436 caad 8836
00000050: 6a36 8536 b460 8736 f65f 8d36 a601 8a36
00000060: 24fe 8036 81b1 8636 550e 8436 e3fc 2d34
00000070: 0d1b 3034 9393 2a34 b50d 2d34 3be8 2e34
00000080: 9d6c 2934 5591 2234 ae75 2434 832d 1f34
00000090: 78df 4034 55d4 4234 fb92 3c34 47e5 3f34
000000a0: 3d95 4134 004c 3b34 7c10 3434 6834 3634
000000b0: 1568 2f34 b622 5434 1e9b 5634 5c63 4f34
000000c0: 702e 5334 2e4b 5434 48ac 4d34 b625 4634
000000d0: c5ec 4734 3279 4034 f2b3 d936 68f5 e436
000000e0: d491 e636 e15b de36 46c3 ea36 f65b ec36
000000f0: b404 d836 8adb e336 446c e536 ea80 ee36
00000100: c381 fa36 7fd9 fb36 aca3 f336 4c58 0037
00000110: 6902 0137 1ebb ec36 8763 f936 7f7b fa36
00000120: f701 0637 b6ce 0c37 312c 0d37 05c1 0837
00000130: 7300 1037 b97a 1037 4363 0437 0a98 0b37
00000140: aef0 0b37 0406 7836 48f5 8936 3f99 8b36
00000150: 65a6 7c36 589f 8c36 b72b 8e36 6f45 7736
00000160: c463 8936 6c78 8b36 7dce 8236 657f 9136
00000170: 854e 9336 7467 8536 a081 9436 2f31 9636
00000180: 6a6b 8236 af2e 9136 a943 9336 5160 8836
00000190: e79f 9736 5b7d 9936 206d 8a36 fc7b 9a36
000001a0: 1138 9c36 f77b 8736 cdc5 9636 8534 9936
000001b0: e791 1837 1aab 1a37 3593 1337 a8cc 1a37
000001c0: e24a 1d37 4be2 1537 755a 1337 5f1b 1637
000001d0: 9b8a 0f37 6191 2737 94f5 2937 a034 2237
000001e0: 5169 2a37 5418 2d37 79b4 2437 7044 2237
000001f0: be28 2537 71cf 1d37 3841 3937 7466 3b37
00000200: d131 3237 0b1a 3c37 fda9 3e37 9bc2 3437
00000210: 8832 3337 9712 3637 c644 2d37 a6c1 8536
00000220: d155 8436 6f6c 8036 701c 8e36 fa84 8c36
00000230: 3228 8536 370e 8636 bf76 8336 d401 8036
00000240: 6dae 5036 0591 4b36 740e 4436 d8eb 5e36
00000250: 4a80 5d36 ca53 4f36 c10a 5436 d726 5136
00000260: 6c79 4936 712e 2536 1e0c 2136 c8ae 1a36
00000270: 87dc 3036 0673 2d36 3d18 2536 f3ee 2b36
00000280: 3959 2636 f88f 2036 8f3c 9433 7e79 a133
00000290: 6d5d 9d33 f521 9e33 b7c4 ad33 3ecf ab33
000002a0: deab 8633 67e2 9433 8d17 9233 e9c5 a733
000002b0: 3c4a b733 9180 b233 7a97 b333 921d c533
000002c0: 262a c333 b641 9933 85a5 a833 5f15 a533
000002d0: 5c75 b433 5b98 c633 b925 c033 abd1 c033
000002e0: c476 d433 bcc8 d133 39d0 a433 11e7 b533
000002f0: 46eb b233 49b8 3f35 1962 4935 8aeb 4635
00000300: b6c3 4535 8fd7 4f35 1071 4d35 2103 3d35
00000310: 23d9 4635 42a8 4435 7263 5435 fc3d 5f35
00000320: 63d5 5b35 962b 5b35 aef9 6635 478c 6335
00000330: 89a2 5135 abad 5c35 0a58 5935 d49e 6735
00000340: f86c 7335 9405 6f35 8ca3 6e35 9c11 7b35
00000350: cde5 7635 9448 6435 8d51 7035 406d 6c35
00000360: c138 3a32 757c 5d32 7fab 4c32 33b7 6e32
00000370: d33c 7332 3cee 7632 209c 5b32 77b8 6a32
00000380: 8beb 7632 7777 2832 e317 4632 0a83 3532
00000390: ddfe 4632 f8e8 6832 e824 4b32 1e03 3432
000003a0: 9689 4732 37a0 4d32 7277 e331 b6b7 0a32
000003b0: a653 0132 bd13 0232 5235 0932 b48c 0d32
000003c0: 684f ea31 4df2 0432 e5aa 0632 dfb4 ee34
000003d0: eb93 0135 698a e834 1af0 f334 5535 0735
000003e0: c778 fa34 d4ea fe34 c42b 0d35 20b2 0135
000003f0: 62dc f834 b915 0835 76d0 f134 9182 0035
5.5234236e-06 5.6764743e-06 5.5329906e-06 5.6676395e-06 5.889911e-06 5.749762e-06 5.465742e-06 5.6813374e-06
5.5397904e-06 4.6927403e-06 4.849497e-06 4.727049e-06 4.811743e-06 5.01039e-06 4.8944726e-06 4.6309724e-06
4.8173733e-06 4.6984665e-06 3.9412544e-06 4.0733476e-06 3.9700435e-06 4.0345712e-06 4.213299e-06 4.1129124e-06
3.844283e-06 4.0141754e-06 3.935575e-06 1.620388e-07 1.6401118e-07 1.5886171e-07 1.6116867e-07 1.6289498e-07
1.5778865e-07 1.5140297e-07 1.5316502e-07 1.4824586e-07 1.7962691e-07 1.8144904e-07 1.7562336e-07 1.7871672e-07
1.8028818e-07 1.7443381e-07 1.6769803e-07 1.6969136e-07 1.633601e-07 1.9756666e-07 1.9986734e-07 1.9314524e-07
1.96678e-07 1.9771389e-07 1.9154788e-07 1.8453906e-07 1.8619455e-07 1.7925484e-07 6.4880523e-06 6.8234986e-06
6.871511e-06 6.6268117e-06 6.9964763e-06 7.0440537e-06 6.437849e-06 6.790685e-06 6.8373356e-06 7.1079603e-06
7.465687e-06 7.505703e-06 7.2610183e-06 7.649953e-06 7.68956e-06 7.0551314e-06 7.432365e-06 7.4649574e-06
7.98748e-06 8.392779e-06 8.414544e-06 8.151173e-06 8.583173e-06 8.611642e-06 7.890924e-06 8.320445e-06
8.341083e-06 3.6958381e-06 4.1114727e-06 4.160363e-06 3.764778e-06 4.190875e-06 4.237019e-06 3.6846284e-06
4.0945324e-06 4.1565418e-06 3.8983403e-06 4.3361674e-06 4.3900823e-06 3.9757524e-06 4.425834e-06 4.476074e-06
3.8868066e-06 4.3267714e-06 4.388818e-06 4.0643286e-06 4.5187658e-06 4.5743486e-06 4.1254243e-06 4.6039913e-06
4.6556893e-06 4.037745e-06 4.4933754e-06 4.5658694e-06 9.0938765e-06 9.218953e-06 8.796157e-06 9.2267655e-06
9.375364e-06 8.93378e-06 8.782944e-06 8.94707e-06 8.555736e-06 9.987824e-06 1.0130363e-05 9.668205e-06
1.01573105e-05 1.0317268e-05 9.817181e-06 9.671887e-06 9.844252e-06 9.406228e-06 1.1042044e-05 1.1169923e-05
1.0621226e-05 1.1211737e-05 1.1364461e-05 1.0774146e-05 1.0680997e-05 1.0852374e-05 1.0327616e-05 3.9862525e-06
3.943897e-06 3.8273206e-06 4.2352403e-06 4.1878056e-06 3.9683882e-06 3.995166e-06 3.917928e-06 3.81491e-06
3.1095944e-06 3.033377e-06 2.9214689e-06 3.3217857e-06 3.300624e-06 3.0894175e-06 3.1596721e-06 3.1166035e-06
3.002201e-06 2.4613948e-06 2.3997923e-06 2.3049524e-06 2.6354408e-06 2.5845961e-06 2.4601025e-06 2.5620072e-06
2.4787862e-06 2.3925659e-06 6.9028026e-08 7.519246e-08 7.327876e-08 7.363625e-08 8.0917225e-08 8.000505e-08
6.271124e-08 6.9329694e-08 6.802939e-08 7.812543e-08 8.535105e-08 8.312157e-08 8.3628905e-08 9.178906e-08
9.088062e-08 7.1365704e-08 7.8532175e-08 7.6872986e-08 8.403251e-08 9.247807e-08 8.9475584e-08 8.978835e-08
9.8936226e-08 9.768834e-08 7.6747206e-08 8.4705e-08 8.331567e-08 7.1421215e-07 7.5021086e-07 7.41035e-07
7.3673016e-07 7.742719e-07 7.653298e-07 7.041254e-07 7.4076723e-07 7.326054e-07 7.9120866e-07 8.316417e-07
8.1894376e-07 8.1647283e-07 8.604501e-07 8.476822e-07 7.8095087e-07 8.2209107e-07 8.0966913e-07 8.628533e-07
9.0683125e-07 8.9042555e-07 8.88999e-07 9.353041e-07 9.1976545e-07 8.5042234e-07 8.952564e-07 8.807583e-07
1.0839529e-08 1.2892191e-08 1.19133565e-08 1.3895078e-08 1.4158291e-08 1.4373253e-08 1.27829765e-08 1.3662535e-08
1.4372641e-08 9.80605e-09 1.1530548e-08 1.05653815e-08 1.1583066e-08 1.3557148e-08 1.1824547e-08 1.0478088e-08
1.1614608e-08 1.1968999e-08 6.620149e-09 8.074428e-09 7.527808e-09 7.571484e-09 7.986573e-09 8.239272e-09
6.8193238e-09 7.738504e-09 7.8386835e-09 4.4462556e-07 4.8271494e-07 4.3314074e-07 4.5436974e-07 5.036903e-07
4.6654006e-07 4.7482047e-07 5.259028e-07 4.831545e-07 4.635395e-07 5.069556e-07 4.5041423e-07 4.7873715e-07

exp_avg f4 [32]
00000000: 5c45 2fbc 5033 15ba 676a bfbb d030 29ba
00000010: 46ff 033b 4740 4b3a 1a9b 5ab9 bba0 53ba
00000020: 1008 f6b9 4d07 d23a 2526 27bc a803 86b9
00000030: 34b8 6c39 2018 483b c69b 123a 2a32 f7b6
00000040: c7b4 f5bb 249c 02bc 7edb 1f3a 84a7 08ba
00000050: 63a6 12bc b9e5 9e3b 9d3f 55b9 1c0a f4bb
00000060: 09b2 383b f151 afb9 429e 2a3b cb13 663a
00000070: 57be 9e3b 7ebe 6539 8ccf bb39 f130 a53a
-0.010697689 -0.0005691545 -0.0058415416 -0.0006454112 0.0020141168 0.00077534135 -0.0002084788 -0.0008072962
-0.00046926783 0.0016023904 -0.010201965 -0.00025561196 0.00022575335 0.0030531958 0.000559267 -7.3670135e-06
-0.007498357 -0.007971797 0.00060980755 -0.000521295 -0.0089508025 0.0048491624 -0.00020336961 -0.007447494
0.002818229 -0.00033439652 0.002603427 0.0008776753 0.0048444676 0.00021910106 0.00035822054 0.0012603087

exp_avg_sq f4 [32]
00000000: 8f7b 483b 27d4 4537 2583 873a c4ca 1a39
00000010: 64d1 043a 4176 8c3a 0be2 7e36 51cd ac37
00000020: 2c19 b036 7aa9 b138 cc1e 173b 1dfd b738
00000030: c410 b136 e71b 403a 04d6 c83a 8691 e538
00000040: bf32 933a e25d 583a bc50 ea39 0899 0837
00000050: 59f6 203b c077 3d3a 4b5a 373b af67 4c3a
00000060: 31ff 4b39 6caa 8b3a 5ac6 4b39 6254 bf37
00000070: 6f60 5f3a f089 4337 3f8e 4936 2f2b 043b
0.0030591225 1.1791511e-05 0.0010338767 0.0001476212 0.0005066602 0.0010716395 3.7980524e-06 2.0599606e-05
5.248139e-06 8.471585e-05 0.0023059128 8.773266e-05 5.276963e-06 0.00073283765 0.0015322571 0.00010946677
0.0011230333 0.0008253736 0.0004469211 8.141862e-06 0.0024560897 0.0007227622 0.0027977403 0.00077974325
0.00019454655 0.0010655648 0.0001943348 2.2808268e-05 0.00085211446 1.1655022e-05 3.0034132e-06 0.002016734

exp_avg f4 [32, 32, 3, 3]
00000000: c7d3 e038 54fc e638 cb2f ec38 ad57 eb38
00000010: 68ca f038 3f3c f638 4aa0 f538 9ae9 fa38
00000020: 4c9b ff38 6d0b 9eb6 5af4 a6b6 416f abb6
00000030: 1307 b0b6 8bf0 b5b6 fa5c bfb6 c142 bbb6
00000040: 264d c9b6 4ae7 c2b6 7cf9 2938 7f42 2d38
00000050: d758 3038 7d4d 3338 0a55 3538 8103 3838
00000060: ae7c 3738 52a5 3738 37b5 3b38 e753 96b8
00000070: 17ae 99b8 1268 9cb8 feb0 9bb8 b446 9fb8
00000080: cf43 a2b8 6c4b a1b8 ef42 a5b8 288f a4b8
00000090: 323a 8a38 f4d7 8c38 9434 9038 3a90 9438
000000a0: b658 9938 4219 9e38 0f9a 9738 43d6 9c38
000000b0: e2c2 9c38 d17a 2238 54a2 2e38 53d3 3538
000000c0: 74d1 2f38 4670 3a38 cb09 3d38 b583 3a38
000000d0: b5c8 4038 235e 4b38 9093 24b7 183b 2bb7
000000e0: bb79 2bb7 0ab0 29b7 ffb0 33b7 c45b 36b7
000000f0: 5477 42b7 1f81 48b7 a44f 50b7 57cb c135
00000100: c05f 9e35 acec 5e35 cacf 8135 38ef d434
00000110: 8f25 fa33 46d6 4f35 d53f 0232 889f c2b3
00000120: 575c 7836 0a8e 8f36 d115 a736 8d07 8036
00000130: b7a5 ab36 df92 9f36 1f0f bc36 5630 b036
00000140: c1fb ce36 2b58 1237 e4f9 0e37 c580 0537
00000150: f134 1637 4bdf 0e37 7521 1d37 0255 3b37
00000160: ef9b 5137 5a8c 4937 95eb 1738 edbc 1c38
00000170: 7133 1f38 5e09 2338 af56 2538 1da1 2838
00000180: 0248 2438 f464 2938 aa6a 2a38 7dab d9b7
00000190: f211 dfb7 4c8e e3b7 ea1b ebb7 ab05 f1b7
000001a0: ba2e f3b7 e3ad e6b7 3f3c ebb7 6e13 edb7
000001b0: 5fae 8337 0bee 8837 6fc3 8737 282f 8f37
000001c0: 2a4e 8637 940b 8f37 1355 9337 dad7 8c37
000001d0: 0989 9637 c529 ffb7 c592 01b8 35a7 02b8
000001e0: 12d7 02b8 2820 06b8 c4bb 02b8 11fd 0db8
000001f0: f973 0bb8 1878 0cb8 84f6 0d38 b271 1138
00000200: 104a 1738 f4bb 1938 5787 1838 65e4 2038
00000210: f200 1938 60e4 2438 cf31 1f38 f092 2ab8
00000220: 8c79 2db8 a2c8 2fb8 3a8d 31b8 7cb3 35b8
00000230: c572 36b8 cb75 37b8 170a 3ab8 a1a6 3bb8
00000240: b7e0 1738 b3fa 1938 3c76 1b38 07f0 1c38
00000250: cffe 1d38 181c 2238 9a49 2238 565b 2338
00000260: 8331 2438 f5e0 4b38 72de 5138 3ae5 5838
00000270: 96d7 5038 f95b 5f38 0303 6238 25c7 5c38
00000280: 2ff5 6738 870a 6638 5423 b5b8 d80a bbb8
00000290: b590 bfb8 ec4c c0b8 7eee c5b8 7812 cbb8
000002a0: ece0 c4b8 9e3c cab8 e9e7 cdb8 d839 2bb7
000002b0: 03d1 37b7 c59e 3ab7 f003 3bb7 cf44 44b7
000002c0: 4fc5 49b7 db1a 4db7 df5f 50b7 6f4c 57b7
000002d0: 3246 5038 f084 5c38 13ab 5e38 e4bb 5938
000002e0: 57cc 6338 3d4c 6938 5c6a 6438 8acd 6838
000002f0: 990a 6e38 6c3e d5b7 7f45 e6b7 9067 ddb7
00000300: 2e05 e6b7 e9ac e0b7 1a6d eab7 e007 f2b7
00000310: 1afe eeb7 d187 f1b7 57f8 eb37 4fa7 fd37
00000320: f0c4 f737 d79d f937 4106 ff37 7f0a 0338
00000330: 1986 0138 a091 0838 1fca 0938 063d 4738
00000340: d9db 5038 64af 5038 46bd 5238 101f 5a38
00000350: d903 5c38 b7dc 5838 a2d3 5e38 c78f 6038
00000360: 3543 1637 c22c 0737 c9f2 2337 5895 0a37
00000370: 9cd9 1737 4c5b 2037 6ba9 2c37 d134 3d37
00000380: 5227 2937 85a4 1838 acf7 1d38 d429 2338
00000390: fbdf 1d38 457c 2438 e7b9 2538 8381 2438
000003a0: d335 2a38 b934 2f38 c0ae ce37 7403 da37
000003b0: bc2d dd37 a3b6 e137 718a e637 6779 f037
000003c0: 6122 e737 5d0e 0038 4b9f f737 4230 e136
000003d0: afac bc36 8a4e c036 3094 f736 3ed8 f236
000003e0: d19a b036 86b9 1b37 b4dc ef36 5da8 eb36
000003f0: 41dc 22b7 a1fb 19b7 695e 1db7 f8da 1ab7
0.00010720599 0.000110142544 0.00011262259 0.00011222004 0.00011481793 0.00011741416 0.000117123665 0.00011964441
0.00012188274 -4.710097e-06 -4.975632e-06 -5.109149e-06 -5.2460323e-06 -5.4222232e-06 -5.7030675e-06 -5.5808055e-06
-5.999248e-06 -5.808576e-06 4.052509e-05 4.1308343e-05 4.204441e-05 4.2749092e-05 4.323296e-05 4.3872282e-05
4.3746717e-05 4.3784567e-05 4.4753044e-05 -7.1681854e-05 -7.328035e-05 -7.458044e-05 -7.423943e-05 -7.59488e-05
-7.737392e-05 -7.691127e-05 -7.8802805e-05 -7.846794e-05 6.5911925e-05 6.7159446e-05 6.8762485e-05 7.084054e-05
7.312132e-05 7.538732e-05 7.228937e-05 7.478569e-05 7.4749594e-05 3.873819e-05 4.1636013e-05 4.3350574e-05
4.191832e-05 4.445042e-05 4.5070232e-05 4.4468517e-05 4.596329e-05 4.8486643e-05 -9.809519e-06 -1.0206153e-05
-1.0220737e-05 -1.0114172e-05 -1.07104415e-05 -1.0869411e-05 -1.1591084e-05 -1.1950992e-05 -1.2416309e-05 1.44388e-06
1.1799784e-06 8.304585e-07 9.671724e-07 3.9662132e-07 1.1648364e-07 7.742532e-07 7.58151e-09 -9.0628475e-08
3.7008629e-06 4.2782676e-06 4.9795276e-06 3.8155763e-06 5.115489e-06 4.7556673e-06 5.604597e-06 5.250836e-06
6.1685864e-06 8.722806e-06 8.522042e-06 7.957399e-06 8.953023e-06 8.515849e-06 9.365719e-06 1.1165861e-05
1.2493677e-05 1.2013212e-05 3.622061e-05 3.736925e-05 3.7956463e-05 3.8870952e-05 3.9419796e-05 4.020437e-05
3.916771e-05 4.038676e-05 4.0630497e-05 -2.5948271e-05 -2.6592028e-05 -2.712677e-05 -2.8027182e-05 -2.8732078e-05
-2.8989616e-05 -2.7499109e-05 -2.8042237e-05 -2.826165e-05 1.5697615e-05 1.632331e-05 1.618426e-05 1.7068887e-05
1.6010443e-05 1.705232e-05 1.7563381e-05 1.6789814e-05 1.7945205e-05 -3.041782e-05 -3.0892686e-05 -3.115014e-05
-3.1194715e-05 -3.1978037e-05 -3.1169286e-05 -3.3852706e-05 -3.324819e-05 -3.3490447e-05 3.3846605e-05 3.467658e-05
3.607018e-05 3.6653088e-05 3.636567e-05 3.835968e-05 3.6478923e-05 3.9313338e-05 3.7954942e-05 -4.0668005e-05
-4.1359614e-05 -4.1910105e-05 -4.2331616e-05 -4.332092e-05 -4.349907e-05 -4.3740303e-05 -4.4355253e-05 -4.473946e-05
3.6210487e-05 3.6711524e-05 3.7064994e-05 3.741684e-05 3.7669026e-05 3.8649974e-05 3.8692357e-05 3.894729e-05
3.914676e-05 4.860848e-05 5.003665e-05 5.1711897e-05 4.9791845e-05 5.3253e-05 5.3885404e-05 5.2637555e-05
5.5303037e-05 5.4846078e-05 -8.637333e-05 -8.918875e-05 -9.1345435e-05 -9.169601e-05 -9.438115e-05 -9.6832344e-05
-9.387903e-05 -9.6434014e-05 -9.8183584e-05 -1.0205862e-05 -1.0956314e-05 -1.112343e-05 -1.1146985e-05 -1.1698531e-05
-1.2026473e-05 -1.2225205e-05 -1.2420088e-05 -1.2832795e-05 4.965644e-05 5.2575895e-05 5.308825e-05 5.191182e-05
5.4311324e-05 5.562253e-05 5.445849e-05 5.5504534e-05 5.675349e-05 -2.5420646e-05 -2.7450498e-05 -2.6393478e-05
-2.7420549e-05 -2.6783398e-05 -2.7945778e-05 -2.8852315e-05 -2.8490136e-05 -2.8792683e-05 2.8129825e-05 3.023786e-05
2.95364e-05 2.9756613e-05 3.0401281e-05 3.124261e-05 3.0880885e-05 3.256055e-05 3.2851585e-05 4.750213e-05
4.9795814e-05 4.975441e-05 5.0244176e-05 5.200418e-05 5.245567e-05 5.170397e-05 5.3126023e-05 5.3539665e-05
8.956345e-06 8.057048e-06 9.772085e-06 8.260213e-06 9.0509675e-06 9.558e-06 1.0291445e-05 1.1277575e-05
1.008234e-05 3.6392845e-05 3.766238e-05 3.8901184e-05 3.7640315e-05 3.9216382e-05 3.95122e-05 3.9221264e-05
4.0581286e-05 4.1772353e-05 2.4638488e-05 2.5989233e-05 2.636655e-05 2.6907137e-05 2.7482603e-05 2.8666762e-05
2.7553355e-05 3.0530955e-05 2.9518871e-05 6.7111405e-06 5.6229396e-06 5.731189e-06 7.378425e-06 7.237336e-06
5.2632317e-06 9.2819155e-06 7.1484483e-06 7.023146e-06 -9.707234e-06 -9.178098e-06 -9.379911e-06 -9.230098e-06
