ckpt/init_high.pth (torch_old, 250437 bytes, 24 tensors)

decom.0.weight f4 [32, 3, 3, 3]
-0.0955775 -0.1781695 0.10231872 0.10801052 -0.10380663 -0.1382766 -0.07248143 -0.18552193
-0.1730236 0.09739969 0.20211422 0.013147714 0.09598636 0.20870294 0.13492338 -0.09448079
0.10483113 0.02885528 -0.014338 -0.14025453 -0.018775579 0.058399808 0.09214485 0.076945946
-0.017581664 0.06323904 -0.11731667 -0.030969108 0.15108952 0.14012603 -0.02083806 0.04945046
0.042053428 0.08983756 -0.21705675 -0.009240847 -0.20060703 0.17141049 -0.027911913 0.12623586
-0.15940543 -0.112273574 0.05571462 -0.018916639 0.086418256 0.020331942 0.1481958 0.06247278
0.102771625 -0.098040625 -0.18989815 -0.1377773 0.024439737 0.013094054 0.04741795 0.09860287
-0.064247526 0.18286875 0.31183946 -0.15319651 -0.17476992 -0.12283903 -0.11805272 -0.020108055
0.062389966 -0.04998324 0.008355007 0.20067489 -0.11045179 -0.040886026 0.0241381 -0.048609316
0.060444582 -0.09644443 -0.08989766 0.15522076 0.13032092 -0.02199746 -0.022539256 -0.10495451
-0.09571054 -0.13545863 0.06478527 0.200525 0.067273706 -0.027638119 -0.08907239 0.123973735
0.18545581 0.08285673 -0.061727356 -0.14391416 -0.090553276 0.04862808 -0.0731303 -0.13287982
-0.020177886 -0.23637132 0.011625533 0.041583274 -0.018599788 -0.00020489164 0.1557516 -0.14607504
0.2225955 -0.12131173 0.01194588 -0.06418193 -0.040660948 -0.055026293 0.03743413 0.04712023
-0.12313959 -0.060875423 0.116927445 0.25539702 -0.18602611 0.051533937 -0.20064189 -0.12146176
0.17565827 0.025987206 0.089385495 -0.114138685 -0.09476948 0.16869052 0.04516 0.13953543
0.13379985 -0.13907917 -0.054552063 0.22517848 -0.1581302 0.054597512 -0.25564492 -0.02836306
-0.085402355 0.102288775 0.15206078 -0.08796051 -0.07445108 -0.164334 0.13535431 0.005712099
0.14461887 0.15427902 -0.05765016 -0.15456584 -0.14261958 -0.1966294 -0.043756284 -0.014388826
0.14971532 -0.064731576 -0.08223303 -0.088089265 0.0413546 0.08413252 0.11310611 0.16951288
-0.15015063 -0.09194225 0.0987946 -0.13917516 0.14842245 0.067213096 -0.12691224 -0.19108903
-0.075132236 -0.06652551 -0.10544517 -0.21813656 0.08142864 0.02335773 -0.081949756 -0.20679362
-0.15377559 0.11163984 0.11559345 -0.12250937 -0.0046735606 0.16307557 -0.14284098 0.02576231
0.14811 0.06928038 0.07438754 0.15668774 0.14773746 0.16939832 -0.057728216 -0.12754981
0.17571919 0.13792434 0.14458235 -0.1510762 0.047564667 0.064148694 -0.116167456 -0.07039503
-0.065925755 -0.2056039 -0.09778969 0.09971724 -0.028726744 0.089240655 -0.1911872 0.15560779
0.17183131 0.14635786 0.18705498 -0.13927715 -0.07392714 -0.12866308 -0.16032033 -0.04525415
-0.010506734 -0.01406286 -0.09530848 -0.053313147 -0.08250832 -0.048282605 0.123579666 0.20020929
0.008663 0.15444793 -0.0130777825 0.12046813 0.07884858 -0.04390744 0.126686 0.0923474
0.041998956 -0.20284046 0.113550566 -0.0038933225 0.0008700288 -0.07564027 -0.08573026 -0.21150172
0.08059987 -0.20126481 -0.09431316 -0.16769643 -0.14880612 0.10190267 -0.06231506 0.12311201
-0.020256128 -0.07093472 0.10184522 -0.18116562 -0.021646421 0.09015757 0.112460785 0.051700212
00000000: 23be c3bd 1172 36be 7a8c d13d 9f34 dd3d
00000010: 9298 d4bd 6298 0dbe 2571 94bd 76f9 3dbe
00000020: 192d 31be 7d79 c73d 08f7 4e3e 8269 573c
00000030: 7f94 c43d 39b6 553e 5b29 0a3e 257f c1bd
00000040: b4b1 d63d e861 ec3c eee9 6abc e29e 0fbe
00000050: 3ecf 99bc a334 6f3d 70b6 bc3d d695 9d3d
00000060: 6c07 90bc 7883 813d b943 f0bd edb2 fdbc
00000070: 36b7 1a3e 337d 0f3e 94b4 aabc 918c 4a3d
00000080: 3740 2c3d c1fc b73d 2044 5ebe ec66 17bc
00000090: ee6b 4dbe 3b86 2f3e 86a7 e4bc f943 013e
000000a0: 2d3b 23be b0ef e5bd 0335 643d 11f7 9abc
000000b0: 0efc b03d 2c8f a63c a4c0 173e 75e3 7f3d
000000c0: ee79 d23d 86c9 c8bd a974 42be 7e15 0dbe
000000d0: d835 c83c 7188 563c 5339 423d 4df0 c93d
000000e0: 3594 83bd f241 3b3e 6ca9 9f3e 8cdf 1cbe
000000f0: e3f6 32be 0893 fbbd a0c5 f1bd a6b9 a4bc
00000100: 9f8c 7f3d 3abb 4cbd 70e3 083c b87d 4d3e
00000110: 8c34 e2bd 1b78 27bd 44bd c53c 901a 47bd
00000120: bd94 773d a884 c5bd 441c b8bd 31f2 1e3e
00000130: d972 053e 0434 b4bc 3fa4 b8bc 64f2 d6bd
00000140: e303 c4bd abb5 0abe 24ae 843d 6d56 4d3e
00000150: ccc6 893d 5669 e2bc 966b b6bd f1e5 fd3d
00000160: 21e8 3d3e cab0 a93d d3d5 7cbd 3c5e 13be
00000170: ff73 b9bd 3d2e 473d 57c5 95bd a611 08be
00000180: 184c a5bc 530b 72be 0579 3e3c 3953 2a3d
00000190: 955e 98bc 2ed8 56b9 597d 1f3e b294 15be
000001a0: 13f0 633e 4972 f8bd a7b8 433c d171 83bd
000001b0: 188c 26bd 4063 61bd 8854 193d 2401 413d
000001c0: 9c30 fcbd 8258 79bd a877 ef3d 66c3 823e
000001d0: a17d 3ebe 4015 533d 1175 4dbe f1c0 f8bd
000001e0: c3df 333e 1fe3 d43c be0f b73d 8bc1 e9bd
000001f0: 8016 c2bd 35bd 2c3e b1f9 383d 60e2 0e3e
00000200: d402 093e c56a 0ebe fc71 5fbd 3095 663e
00000210: e2ec 21be a4a1 5f3d e4e3 82be a659 e8bc
00000220: 6ee7 aebd c77c d13d d2b5 1b3e a424 b4bd
00000230: cf79 98bd 2c47 28be 529a 0a3e 8f2c bb3b
00000240: f816 143e 52fb 1d3e 9322 6cbd 8246 1ebe
00000250: de0a 12be 3859 49be ca39 33bd 1cbf 6bbc
00000260: f94e 193e fd91 84bd ca69 a8bd 2568 b4bd
00000270: 7163 293d ac4d ac3d 2da4 e73d c994 2d3e
00000280: 16c1 19be 384c bcbd d354 ca3d ef83 0ebe
00000290: 0efc 173e 05a7 893d 48f5 01be d8ac 43be
000002a0: eede 99bd 873e 88bd a3f3 d7bd 315f 5fbe
000002b0: 0fc4 a63d b658 bf3c 46d5 a7bd b5c1 53be
000002c0: 5977 1dbe 6ea3 e43d 42bc ec3d 31e6 fabd
000002d0: ab24 99bb 48fd 263e e844 12be 7b0b d33c
000002e0: 26aa 173e dfe2 8d3d 7f58 983d c072 203e
000002f0: 7d48 173e c176 2d3e 6c74 6cbd 6b9c 02be
00000300: bbef 333e 0a3c 0d3e 650d 143e b8b3 1abe
00000310: 2bd3 423d 6460 833d 34e9 edbd 452b 90bd
00000320: 1504 87bd d489 52be f645 c8bd 8d38 cc3d
00000330: 5954 ebbc cec3 b63d 94c6 43be a657 1f3e
00000340: 8cf4 2f3e d6de 153e 578b 3f3e ab9e 0ebe
00000350: 1d67 97bd 41c0 03be 032b 24be 6a5c 39bd
00000360: 7024 2cbc e967 66bc 1831 c3bd e35e 5abd
00000370: 1ffa a8bd fbc3 45bd 5617 fd3d aa03 4d3e
00000380: 41ef 0d3c 9927 1e3e 3244 56bc ffb7 f63d
00000390: 5d7b a13d 4ad8 33bd fab9 013e a220 bd3d
000003a0: 1907 2c3d 69b5 4fbe 338d e83d 1d27 7fbb
000003b0: a512 643a 49e9 9abd 5993 afbd e893 58be
000003c0: 8b11 a53d 5d18 4ebe 4227 c1bd 9db8 2bbe
000003d0: a260 18be 59b2 d03d 143e 7fbd 2622 fc3d
000003e0: 2ef0 a5bc 3946 91bd 3a94 d03d 7b83 39be
000003f0: d653 b1bc 88a4 b83d d751 e63d 9ac3 533d

decom.0.bias f4 [32]
0.027168117 -0.07448401 -0.028950222 0.10984692 0.0033208665 0.1415925 0.07434459 0.09514038
-0.000331835 -0.00015972643 -0.011995334 0.120072156 0.090065725 0.16770773 0.00020157828 -0.24001178
0.03585324 -2.0608728e-05 0.1038353 0.10190537 -1.1881313e-06 0.21792652 0.12905417 0.08708866
0.07540321 0.10212623 0.03107914 -0.21807654 0.19123955 0.09737611 -0.17130372 0.11244426
00000000: ac8f de3c 138b 98bd 0429 edbc 6cf7 e03d
00000010: e5a2 593b a0fd 103e fa41 983d f6d8 c23d
00000020: 24fa adb9 3d7c 27b9 1488 44bc 64e8 f53d
00000030: 6174 b83d 93bb 2b3e c25e 5339 a6c5 75be
00000040: d9da 123d e8e0 acb7 9aa7 d43d c3b3 d03d
00000050: e177 9fb5 2128 5f3e c726 043e 8a5b b23d
00000060: 006d 9a3d 8f27 d13d ae99 fe3c 754f 5fbe
00000070: 4dd4 433e 206d c73d 3e6a 2fbe 2d49 e63d

decom.2.weight f4 [32, 32, 3, 3]
0.012794907 0.11613081 -0.0143295 0.049442396 0.06585073 -0.03901929 -0.06659503 0.015667658
0.025080537 -0.11210879 -0.0404387 0.0057247155 -0.06747511 -0.027043492 -0.016292447 -0.11388893
-0.04860545 0.020443728 -0.021515947 0.13143758 -0.018948188 0.004913286 -0.095907375 -0.0053070444
0.036756422 0.004071251 0.04763812 -0.004903978 0.015189049 -0.0021063264 0.05707625 -0.09746839
0.029527815 -0.04965808 -0.03886868 0.02077024 0.039343614 0.027312268 -0.028667593 -0.034363568
-0.0016135112 -0.009280683 -0.16328192 -0.061333213 -0.038825784 -0.036292862 0.009614006 -0.059802398
0.1716122 0.015508016 -0.060201526 0.048918534 -0.05511745 -0.03581222 -0.08617581 -0.029320374
-0.08264905 0.010003302 0.010537214 -0.09780703 -0.005534645 0.01707248 -0.026428765 0.08346051
0.10301928 -0.0049048895 0.07058143 -0.06942251 -0.014906309 0.07356753 -0.03490122 0.042682488
-0.0504836 0.009515127 -0.04181167 -0.012086198 -0.011716065 0.02158265 -0.031387284 -0.08784
-0.09253894 0.038160276 -0.044511866 0.068370335 -0.0038084318 -0.040034775 0.03622331 -0.04063596
-0.07378852 -0.026902476 -0.047349982 -0.12642682 0.023969406 -0.050533872 0.006441656 -0.0884737
-0.0018727628 0.05469104 -0.023916842 0.12341515 -0.050202258 0.038175955 -0.05919956 0.069931954
0.033694584 0.012497317 -0.05234293 0.009778205 0.017006082 0.059869833 -0.018610708 0.020620551
-0.014188586 -0.044797625 -0.078617975 -0.047769893 -0.041509725 -0.038125835 -0.010264107 0.0043421304
-0.0068921377 -0.057405654 -0.029265206 0.021133969 0.03883614 0.014893048 -0.03139275 0.06804714
-0.068874836 -0.037837382 0.029830094 0.13181762 0.090235755 0.11008379 0.041434173 -0.047286857
-0.10363414 -0.012459666 -0.09127959 -0.05203074 -0.020243865 -0.08688002 -0.11872398 0.0031671172
0.048449386 0.016409038 0.03053173 -0.048326958 -0.06771147 0.028514834 0.03324918 -0.09274855
0.030053271 0.024687191 0.010517325 -0.03352891 -0.044445626 0.0500362 -0.026695935 -0.03526639
-0.013639819 0.029437814 0.028829286 -0.044273313 0.082807176 0.0060477057 0.040034946 -0.0032819498
0.024846392 -0.0028643382 0.0023108285 0.10150812 0.0058885096 -0.06411334 0.1046481 0.010712855
-0.04554611 -0.014293918 0.054106373 0.08768307 -0.07993779 0.023418363 -0.07831 0.0007130349
-0.07879467 0.06284817 -0.02817945 0.008012255 -0.032468986 0.00514277 0.008141988 -0.05882406
0.056616675 0.035294816 -0.08515015 0.02334185 -0.041145917 -0.059890028 0.020143915 -0.04842218
0.060380798 0.07074375 -0.019200707 0.02581749 0.013028366 0.09922954 0.0049782493 0.03911934
0.06657324 0.018408535 -0.05446219 0.09165607 0.018533267 -0.028727977 0.05550163 -0.044591513
-0.039474558 -0.053484943 0.04106825 0.062158696 0.010611885 -0.03452136 -0.050895605 0.008788446
-0.05819486 0.0028394186 -0.03679873 0.049038734 -0.0022177878 -0.07440209 0.029466819 -0.041992716
-0.05247276 0.016933182 -0.039685704 0.010921062 0.061369147 0.049020756 -0.052319005 0.05130827
0.021190409 -0.053617064 -0.0011901049 -0.07299509 -0.11588685 -0.0140861785 -0.12272156 -0.18130358
-0.06773797 -0.00977434 -0.028533885 -0.018275565 0.011838903 -0.015304622 -0.04667745 0.031723984
00000000: bba1 513c fdd5 ed3d 47c6 6abc 1c84 4a3d
00000010: bfdc 863d b1d2 1fbd fa62 88bd 7659 803c
00000020: b375 cd3c 4b99 e5bd 0da3 25bd 6596 bb3b
00000030: 6430 8abd 508a ddbc bd77 85bc 993e e9bd
00000040: 8216 47bd 9b79 a73c 3642 b0bc 9397 063e
00000050: 3b39 9bbc a1ff a03b 166b c4bd b7e6 adbb
00000060: e78d 163d 2168 853b 3020 433d 8db1 a0bb
00000070: 7ddb 783c 4b0a 0abb c9c8 693d 829d c7bd
00000080: 51e4 f13c 4566 4bbd c434 1fbd 5a26 aa3c
00000090: c526 213d fabd df3c 4dd8 eabc d0c0 0cbd
000000a0: 747c d3ba 010e 18bc 6033 27be 8938 7bbd
000000b0: c907 1fbd d3a7 14bd 1084 1d3c 5cf3 74bd
000000c0: 1cbb 2f3e 5515 7e3c e095 76bd cd5e 483d
000000d0: d6c2 61bd d6af 12bd f17c b0bd 4831 f0bc
000000e0: e843 a9bd e4e4 233c 47a4 2c3c 0d4f c8bd
000000f0: f85b b5bb 96db 8b3c 2381 d8bc 58ed aa3d
00000100: c6fb d23d 32b9 a0bb ff8c 903d 642d 8ebd
00000110: 9739 74bc 93aa 963d 95f4 0ebd d5d3 2e3d
00000120: e4c7 4ebd 56e5 1b3c b742 2bbd 3005 46bc
00000130: bdf4 3fbc 19ce b03c f48f 00bd 75e5 b3bd
00000140: 0e85 bdbd f34d 1c3d 1352 36bd bf05 8c3d
00000150: e296 79bb 81fb 23bd e55e 143d e471 26bd
00000160: 701e 97bd 9562 dcbc 0ef2 41bd 0876 01be
00000170: 7d5b c43c 9bfc 4ebd 8714 d33b b331 b5bd
00000180: 7e77 f5ba b603 603d 41ed c3bc 15c1 fc3d
00000190: e2a0 4dbd 645e 1c3d 3d7b 72bd 7c38 8f3d
000001a0: 5503 0a3d 8cc1 4c3c 8a65 56bd c434 203c
000001b0: 5750 8b3c 123a 753d 7c75 98bc 6eec a83c
000001c0: 3e77 68bc b77d 37bd 7602 a1bd 5daa 43bd
000001d0: 1a06 2abd d629 1cbd c92a 28bc 6e48 8e3b
000001e0: 71d7 e1bb 3122 6bbd 96bd efbc 2521 ad3c
000001f0: a512 1f3d f901 743c af95 00bd 4d5c 8b3d
00000200: 400e 8dbd 5ffb 1abd 3e5e f43c 33fb 063e
00000210: 86cd b83d 9c73 e13d e1b6 293d ddaf 41bd
00000220: 233e d4bd a023 4cbc cbf0 babd 2f1e 55bd
00000230: 76d6 a5bc 27ee b1bd 8f25 f3bd 698f 4f3b
00000240: dd72 463d 3f6c 863c ae1d fa3c 7df2 45bd
00000250: 50ac 8abd f197 e93c 4b30 083d f4f2 bdbd
00000260: 4732 f63c cb3c ca3c dc50 2c3c 9c55 09bd
00000270: 9e0c 36bd c2f2 4c3d 6fb1 dabc 7d73 10bd
00000280: 8c79 5fbc 9227 f13c 652b ec3c ef57 35bd
00000290: cf96 a93d d52b c63b affb 233d fb15 57bb
000002a0: a98a cb3c 9fb7 3bbb 4571 173b 7de3 cf3d
000002b0: 66f4 c03b db4d 83bd be51 d63d f884 2f3c
000002c0: 8f8e 3abd 0a31 6abc a59e 5d3d 2e93 b33d
000002d0: 6db6 a3bd ded7 bf3c fe60 a0bd f6ea 3a3a
000002e0: 1a5f a1bd 8bb6 803d 97d8 e6bc d545 033c
000002f0: 33fe 04bd ae84 a83b f965 053c 7ff1 70bd
00000300: e3e6 673d 4c91 103d 3463 aebd 6837 bf3c
00000310: 9f88 28bd 3f4f 75bd da04 a53c 5656 46bd
00000320: db51 773d 19e2 903d cd4a 9dbc 337f d33c
00000330: ed74 553c db38 cb3d 9520 a33b 9a3b 203d
00000340: 8d57 883d 7fcd 963c bf13 5fbd 2db6 bb3d
00000350: 14d3 973c ef56 ebbc ad55 633d 97a5 36bd
00000360: 13b0 21bd 0713 5bbd 2e37 283d 1e9a 7e3d
00000370: 79dd 2d3c 4566 0dbd e977 50bd 6afd 0f3c
00000380: bc5d 6ebd 8a15 3a3b 44ba 16bd d7dc 483d
00000390: 4e58 11bb 1f60 98bd 6664 f13c 8e00 2cbd
000003a0: aded 56bd 75b7 8a3c 7a8d 22bd 41ee 323c
000003b0: 375e 7b3d fdc9 483d 744c 56bd 9f28 523d
000003c0: 8297 ad3c 919d 5bbd 4bfd 9bba 737e 95bd
000003d0: 1656 edbd b7c9 66bc 7155 fbbd a5a7 39be
000003e0: 34ba 8abd 8e24 20bc e5bf e9bc a3b6 95bc
000003f0: f5f7 413c 3dc0 7abc db30 3fbd 02f1 013d

decom.2.bias f4 [32]
0.049039233 -0.005342024 0.0053272243 0.0066616507 0.034672033 0.09763052 0.033945378 0.028406661
-0.041143965 0.05892775 -0.02546039 -0.021432767 0.0705165 0.079382494 0.0030263048 0.06512498
-0.030606015 0.072951384 0.019034699 0.044231065 0.046485882 0.010779674 -0.007381162 -0.008723329
0.031170629 0.0015613453 0.05677538 0.06053096 -0.0014007533 -0.02544751 0.070545405 -0.08811849
00000000: 5ddd 483d 250c afbb ff8f ae3b fa49 da3b
00000010: 4304 0e3d 83f2 c73d 4f0a 0b3d 16b5 e83c
00000020: 9386 28bd 395e 713d 4f92 d0bc c593 afbc
00000030: f46a 903d 4a93 a23d f854 463b 3f60 853d
00000040: 77b9 fabc 8967 953d a8ee 9b3c a22b 353d
00000050: fb67 3e3d 3b9d 303c addd f1bb 4bec 0ebc
00000060: 8c59 ff3c 0ea6 cc3a 4d8d 683d 50ef 773d
00000070: 7b99 b7ba 4c77 d0bc 1c7a 903d 7877 b4bd

decom.4.weight f4 [32, 32, 3, 3]
0.011014866 0.07183074 -0.035094034 0.035156023 0.05173229 -0.075613596 -0.016646883 -0.01243458
-0.02018313 0.0032897575 -0.010937701 -0.018014388 -0.042981155 -0.0025248332 0.027863892 -0.021438096
0.031206569 0.012108688 -0.027238267 -0.044321947 0.011874551 0.04933186 -0.023245057 0.041928913
-0.016180493 -0.0868753 -0.015393291 0.014837818 0.08818379 0.0003634319 -0.01564666 -0.1105898
0.043133594 0.0016172545 -0.034707706 0.0031248967 0.053124916 -0.07786524 -0.015732408 -0.019910986
-0.022119742 -0.00895934 -0.020033203 0.021266151 0.015286754 -0.013918021 -0.05835852 -0.0029946866
-0.038366362 0.059497163 -0.0008942311 0.0066240374 0.024367701 -0.0036962219 -0.052662037 0.017012691
0.0027944993 0.04713959 -0.030041335 -0.016305022 -0.053142115 -0.04487337 0.012637194 -0.040235687
-0.008852049 -0.087045155 0.013830912 -0.07070599 -0.096549794 -0.047280304 -0.085770495 -0.047900036
0.010722344 0.00021382023 0.0044633183 -0.05343503 -0.040199045 -0.016424363 -0.048783556 -0.016809853
0.010402565 0.06859603 -0.0004939211 -0.0031066851 0.005602774 0.013362053 0.042752113 -0.067802556
-0.03747825 -0.036483705 0.006590902 -0.01809212 -0.0612208 0.011804619 0.025448209 -0.041351065
-0.05713612 -0.03421371 -0.038539644 -0.042211447 -0.052961864 -0.053162236 0.032107 -0.08363729
-0.012661032 -0.0068096174 0.026134236 0.04979771 -0.011225291 -0.0052724876 0.034120012 0.0031545246
-0.023755599 0.022356203 0.04277274 0.0494016 0.020981612 0.06581195 0.0019763403 -0.01734836
0.0568996 0.053410187 0.020016078 0.009465166 0.03571293 -0.058251217 -0.039431036 0.043348078
-0.031255417 -0.0074985754 0.02180221 -0.03119317 -0.013136407 -0.031020358 -0.052730452 0.08848023
0.14728314 0.014890907 0.068157315 0.095442235 0.085173845 0.046663262 0.0039766706 0.036967516
-0.017447116 0.025199518 -0.04304674 0.029184239 -0.03639028 -0.07927524 0.054741465 -0.051378846
-0.039261196 0.03720652 -0.047266666 -0.04309517 0.05940525 -0.034594204 0.03326628 -0.02490234
0.009826685 -0.002668319 -0.03208122 -0.033005606 -0.040916014 0.025141045 -0.05126699 -0.02516869
0.04945669 -0.03945384 -0.005192949 -0.032232903 -0.03259093 0.040907796 0.012464867 -0.009672637
-0.07831493 0.020294107 0.0016976444 0.02740903 0.06228036 -0.01685525 0.06590088 0.049480468
0.029000739 0.011286175 0.0008909245 0.028439065 0.031637523 -0.014303026 0.029137123 -0.06138516
0.051888984 0.019552065 -0.040362578 -0.0018360893 -0.028719041 0.013328378 0.038455524 0.0004101512
0.059039112 0.004999966 -0.076491885 -0.06380031 0.0027699133 0.03788217 -0.042431153 0.055913556
-0.03157019 0.06544607 0.034578532 -0.06819671 -0.055940572 0.042213492 0.040485196 -0.062618226
0.032189853 0.07817553 0.023515657 0.006807333 -0.0002498095 0.08206195 -0.03654289 0.02672158
0.040962093 -0.02606427 -0.002328221 -0.015457 -0.016186386 0.006942172 0.02659418 -0.027108738
0.0022244218 0.029212037 0.032525823 0.08851723 -0.083683826 -0.041401878 0.08565938 0.035661686
-0.038256004 0.0035110754 -0.07075242 0.056526132 0.059694685 -0.013621816 -0.00586369 0.017788023
-0.025704645 -0.029284785 0.030365868 0.01833066 -0.057520684 -0.004466775 -0.02828509 0.016349172
00000000: b277 343c ff1b 933d c3be 0fbd c3ff 0f3d
00000010: 3de5 533d 4ddb 9abd 0b5f 88bc 69ba 4bbc
00000020: 1757 a5bc f998 573b 0b34 33bc e992 93bc
00000030: 020d 30bd ac77 25bb d142 e43c f29e afbc
00000040: eba4 ff3c 8563 463c c922 dfbc ee8a 35bd
00000050: 7a8d 423c 3410 4a3d 6b6c bebc a7bd 2b3d
00000060: f48c 84bc adeb b1bd 2434 7cbc 521a 733c
00000070: b499 b43d 018b be39 6d2d 80bc e87c e2bd
00000080: daac 303d 0efa d33a ab29 0ebd 11cb 4c3b
00000090: 8399 593d d077 9fbd 40e1 80bc 5d1c a3bc
000000a0: 7634 b5bc 32ca 12bc ac1c a4bc 5a36 ae3c
000000b0: 4b75 7a3c 6908 64bc 5809 6fbd 8142 44bb
000000c0: 0c26 1dbd 4cb3 733d d56a 6aba 740e d93b
000000d0: c69e c73c 503c 72bb 26b4 57bd 335e 8b3c
000000e0: eb23 373b 7115 413d 3f19 f6bc 1c92 85bc
000000f0: 8cab 59bd 24cd 37bd 3c0c 4f3c 2dce 24bd
00000100: 2f08 11bc bb44 b2bd 0d9b 623c 4dce 90bd
00000110: e6bb c5bd fea8 41bd 71a8 afbd d432 44bd
00000120: c5ac 2f3c ee34 6039 0741 923b b1de 5abd
00000130: c1a7 24bd 638c 86bc 44d1 47bd d1b4 89bc
00000140: 856f 2a3c 137c 8c3d 7c7a 01ba 8799 4bbb
00000150: 7a97 b73b 83ec 5a3c d71c 2f3d 11dc 8abd
00000160: cb82 19bd f06f 15bd 7ef8 d73b ed35 94bc
00000170: a9c2 7abd 2968 413c c378 d03c bc5f 29bd
00000180: 9007 6abd ad23 0cbd bfdb 1dbd e9e5 2cbd
00000190: 8aee 58bd a5c0 59bd a182 033d 074a abbd
000001a0: 3870 4fbc 3623 dfbb 7717 d63c aff8 4b3d
000001b0: 48ea 37bc d5c4 acbb 6dc1 0b3d 24bc 4e3b
000001c0: 1a9b c2bc 5b24 b73c 7832 2f3d 5559 4a3d
000001d0: a1e1 ab3c 6ac8 863d 7d85 013b 261e 8ebc
000001e0: 8e0f 693d a4c4 5a3d c2f8 a33c c913 1b3c
000001f0: b947 123d d498 6ebd 7082 21bd c18d 313d
00000200: ae05 00bd 9cb6 f5bb 8c9a b23c d288 ffbc
00000210: 163a 57bc 681e febc e3fb 57bd 1f35 b53d
00000220: 64d1 163e fef8 733c 1096 8b3d 3877 c33d
00000230: a06f ae3d fa21 3f3d bb4e 823b 406b 173d
00000240: 41ed 8ebc 386f ce3c c751 30bd c913 ef3c
00000250: f90d 15bd 0f5b a2bd 9638 603d a072 52bd
00000260: 59d0 20bd dd65 183d b19a 41bd 9084 30bd
00000270: eb52 733d a7b2 0dbd 3942 083d feff cbbc
00000280: 1b00 213c f7de 2ebb 9967 03bd e330 07bd
00000290: 8d97 27bd 98f4 cd3c 56fd 51bd 922e cebc
000002a0: 1993 4a3d 5a9a 21bd 9d29 aabb a606 04bd
000002b0: 117e 05bd ef8e 273d 7139 4c3c fb79 1ebc
000002c0: 9463 a0bd d43f a63c 7e83 de3a e788 e03c
000002d0: b119 7f3d 0514 8abc 0af7 863d 08ac 4a3d
000002e0: f592 ed3c a6e9 383c ee8c 693a 0bf9 e83c
000002f0: 5996 013d 3d57 6abc fab0 ee3c 016f 7bbd
00000300: 8b89 543d a72b a03c 3b53 25bd efa8 f0ba
00000310: 3244 ebbc 455f 5a3c 8a83 1d3d 9009 d739
00000320: ffd2 713d c1d6 a33b c7a7 9cbd bda9 82bd
00000330: 6f87 353b 562a 1b3d 4acc 2dbd 9d05 653d
00000340: be4f 01bd 9708 863d 38a2 0d3d b7aa 8bbd
00000350: f121 65bd 0ee8 2c3d ced3 253d fc3d 80bd
00000360: 82d9 033d 7e1a a03d e8a3 c03c 0c10 df3b
00000370: ddf8 82b9 1810 a83d ffad 15bd 37e7 da3c
00000380: dec7 273d bc84 d5bc 1195 18bb 5b3f 7dbc
00000390: 5099 84bc 297b e33b 0adc d93c 2513 debc
000003a0: 9bc7 113b 154e ef3c cc39 053d 8548 b53d
000003b0: 6d62 abbd 0495 29bd 2f6e af3d fd11 123d
000003c0: 54b2 1cbd 121a 663b a5e6 90bd f287 673d
000003d0: 6a82 743d 0a2e 5fbc 3224 c0bb 30b8 913c
000003e0: 8c92 d2bc a5e6 efbc d7c1 f83c 2e2a 963c
000003f0: cf9a 6bbd 065e 92bb 22b6 e7bc b3ee 853c

decom.4.bias f4 [32]
0.112740904 0.06810151 0.06403428 -0.028617036 -0.09512682 -0.0010365513 0.10473903 -0.036745165
-0.09697586 -0.09130668 -0.12671617 0.025520824 -0.04242372 -0.10966868 0.013104095 0.07908167
0.068421565 -0.0461435 -0.0371253 0.117181964 -0.113349825 -0.032517992 -0.0823791 0.012041019
0.093919665 0.107295856 -0.023979343 0.060327943 -0.029143244 -0.11700398 0.092140615 0.1078175
00000000: b4e4 e63d ce78 8b3d 6824 833d 466e eabc
00000010: dad1 c2bd e4dc 87ba 6b81 d63d 1982 16bd
00000020: 489b c6bd fffe babd e2c1 01be 0c11 d13c
00000030: 7fc4 2dbd f999 e0bd 8fb2 563c 92f5 a13d
00000040: 9b20 8c3d f700 3dbd b310 18bd 19fd ef3d
00000050: f423 e8bd 9631 05bd 60b6 a8bd b247 453c
00000060: f458 c03d eebd db3d 5470 c4bc 6f1a 773d
00000070: d0bd eebc c89f efbd 38b4 bc3d 6ccf dc3d

decom.6.weight f4 [4, 32, 3, 3]
0.041397274 -0.0004446961 0.024500815 -0.026424402 0.006277421 0.04993372 0.03495375 -0.014590031
-0.0334516 0.02414134 0.07116989 -0.023710081 0.096825674 -0.051446572 0.004909139 -0.030067982
-0.02150841 -0.01759529 0.013482013 0.03041766 -0.025610376 0.06996378 0.012828019 -0.118538916
-0.020696623 -0.06662459 0.029912611 -0.022205371 0.026738841 -0.05959055 -0.0731399 -0.10936542
-0.09539898 -0.06832188 -0.068031736 -0.04056865 -0.0348045 -0.061344374 -0.08615379 -0.062051553
-0.019429347 -0.06667759 -0.03357101 -0.03358492 0.020202534 0.0072843824 -0.020902783 0.019603005
-0.015393472 -0.07687878 -0.15532818 -0.001639035 -0.06303251 0.021536103 -0.039367113 -0.04484005
-0.098947935 0.023722362 0.0998119 -0.07289446 0.013262719 0.008140915 -0.07118653 0.025048226
0.028931394 -0.05116477 -0.05043348 0.10405997 -0.058753073 0.07229712 0.10642141 -0.10579184
-0.028185897 0.018722806 -0.011728088 -0.04874401 -0.07144051 0.00076433696 -0.004889241 -0.08329784
-0.010825279 -0.038960822 0.017601183 -0.017864408 -0.028028538 -0.012020133 -0.018155076 -0.015866214
-0.046308156 0.02621771 -0.056588154 -0.057792503 -0.003167698 -0.008116065 -0.10827374 -0.015433494
-0.030239431 -0.06891996 0.024393896 -0.038573895 0.013903225 -0.046337027 0.06868826 -0.016651597
0.09823093 0.055419493 0.06636721 0.06020881 -0.025057064 -0.024219375 -0.0018561224 0.040685322
0.035264757 0.026581397 0.021830775 -0.041826386 0.06707146 -0.09167766 -0.10466877 -0.03166849
0.004570514 -0.070455685 -0.033932135 0.031847455 -0.09930856 0.020804051 0.033737604 -0.018899735
0.005222044 0.01371077 -0.21394718 0.0025396473 -0.006581009 0.015271239 0.017212883 -0.003060118
0.062413096 0.010854866 -0.01893831 0.110128336 0.03683969 -0.07481305 -0.029905468 0.0068636136
0.0003366678 -0.05849563 0.013834963 0.0043271766 0.107886784 0.01696657 0.009934926 0.027611438
-0.020896323 -0.028971467 -0.07416666 0.0075426158 0.004053034 -0.08130274 -0.10449913 -0.051129024
-0.06805029 -0.046383493 -0.039396524 -0.050790913 0.054056957 0.026154142 -0.07515135 0.00066396466
-0.041620888 -0.019748954 -0.022309503 0.02186572 0.032587606 -0.04668855 -0.012077265 0.31809288
-0.04397984 -0.015762037 -0.033271004 -0.05371146 -0.03242651 0.037141472 0.003561164 -0.03243719
-0.015933987 0.035428915 0.002848301 -0.018718056 -0.0011591333 -0.07581388 -0.023128144 -0.03193266
0.0063725635 0.055478048 0.0836775 -0.055957023 0.029502286 -0.009487312 0.017896516 0.011111412
-0.04902524 -0.07744404 -0.057385646 0.022914197 -0.058000285 -0.08939469 -0.007837375 -0.037960477
-0.022357583 -0.019477028 -7.316783e-06 0.14969547 0.03419795 -0.06602051 0.07367059 -0.013287502
-0.04697072 -0.007616318 0.01480978 -0.01342953 0.072417796 0.025090164 0.024943003 -0.033622466
-0.011395807 -0.010808348 0.021563124 -0.009335038 -0.100810446 0.2658382 0.009802711 -0.083680205
0.00886124 -0.005547117 -0.039640944 -0.09319152 -0.07631993 -0.021997156 -0.081817076 0.0011932502
0.022604804 -0.03430655 0.005172606 -0.01596965 0.07408518 -0.008753709 0.025970815 0.102088
0.010151278 0.027718252 0.030324155 0.06565829 0.027809124 -0.03665741 0.033980202 -0.0049142563
00000000: 3090 293d 1a26 e9b9 efb5 c83c fd77 d8bc
00000010: d3b2 cd3b 4d87 4c3d aa2b 0f3d 060b 6fbc
00000020: 8b04 09bd 0fc4 c53c 85c1 913d a53b c2bc
00000030: 8a4c c63d a4b9 52bd d8dc a03b 2151 f6bc
00000040: 6832 b0bc ff23 90bc a9e3 5c3c 752e f93c
00000050: dacc d1bc 2c49 8f3d 9d2c 523c 88c4 f2bd
00000060: f78b a9bc 7972 88bd 4b0b f53c 0ae8 b5bc
00000070: 6a0b db3c 3815 74bd 5fca 95bd fafa dfbd
00000080: 8a60 c3bd 58ec 8bbd 3954 8bbd 502b 26bd
00000090: 2a8f 0ebd 3d44 7bbd 6671 b0bd c529 7ebd
000000a0: 4b2a 9fbc 438e 88bd c181 09bd 5790 09bd
000000b0: c97f a53c d4b1 ee3b 503c abbc 7b96 a03c
000000c0: e734 7cbc 9f72 9dbd 5a0e 1fbe e3d4 d6ba
000000d0: 3017 81bd 7b6c b03c 693f 21bd 33aa 37bd
000000e0: 37a5 cabd 6655 c23c 2e6a cc3d b149 95bd
000000f0: e04b 593c 7961 053c 3eca 91bd f031 cd3c
00000100: 8801 ed3c 2692 51bd 5693 4ebd 651d d53d
00000110: 10a7 70bd 8310 943d 78f3 d93d 64a9 d8bd
00000120: 1ce6 e6bc 9260 993c 2b27 40bc cda7 47bd
00000130: 674f 92bd c95d 483a ed35 a0bb 0f98 aabd
00000140: 835c 31bc 6295 1fbd 5b30 903c 6158 92bc
00000150: 1b9c e5bc 18f0 44bc f4b9 94bc ddf9 81bc
00000160: 9fad 3dbd 86c6 d63c fbc8 67bd d5b7 6cbd
00000170: 2799 4fbb 3ef9 04bc 9fbe ddbd c4dc 7cbc
00000180: afb8 f7bc e825 8dbd b5d5 c73c a9ff 1dbd
00000190: 5aca 633c e5cb 3dbd 6eac 8c3d ee68 88bc
000001a0: 4c2d c93d 8dff 623d 88eb 873d 839d 763d
000001b0: 7944 cdbc b667 c6bc 2249 f3ba a7a5 263d
000001c0: c771 103d 3bc1 d93c 74d6 b23c 2552 2bbd
000001d0: c35c 893d 7fc1 bbbd 955c d6bd d2b6 01bd
000001e0: 40c4 953b 124b 90bd 6cfc 0abd 7a72 023d
000001f0: 4962 cbbd 426d aa3c 7130 0a3d 9ed3 9abc
00000200: ae1d ab3b 23a3 603c f814 5bbe 3670 263b
00000210: 81a5 d7bb 3834 7a3c 0802 8d3c 438c 48bb
00000220: e0a4 7f3d 9cd8 313c 8424 9bbc f78a e13d
00000230: 37e5 163d 9637 99bd 50fc f4bc 2ae8 e03b
00000240: ca82 b039 1d99 6fbd 0aac 623c fdca 8d3b
00000250: bff3 dc3d 7afd 8a3c 1ac6 223c 6231 e23c
00000260: c42e abbc 9255 edbc b1e4 97bd 0c28 f73b
00000270: 50cf 843b 0d82 a6bd a403 d6bd ab6c 51bd
00000280: f35d 8bbd 9efc 3dbd 405e 21bd 220a 50bd
00000290: d46a 5d3d 3641 d63c f3e8 99bd ea0d 2e3a
000002a0: aa7a 2abd 8fc8 a1bc 6bc2 b6bc bd1f b33c
000002b0: 957a 053d 7e3c 3fbd b9df 45bc 12dd a23e
000002c0: 3424 34bd 631f 81bc 2d47 08bd 8c00 5cbd
000002d0: a9d1 04bd a821 183d 6b62 693b dcdc 04bd
000002e0: fe87 82bc e91d 113d 90aa 3a3b 9c56 99bc
000002f0: 0fee 97ba 4f44 9bbd 3c77 bdbc d2cb 02bd
00000300: f0d0 d03b f33c 633d 1c5f ab3d 3133 65bd
00000310: c7ae f13c ac70 1bbc b79b 923c a40c 363c
00000320: b1ce 48bd fb9a 9ebd 360d 6bbd 8eb6 bb3c
00000330: b591 6dbd 9014 b7bd 5568 00bc 727c 1bbd
00000340: 4027 b7bc 4a8e 9fbc b082 f5b6 c549 193e
00000350: 2613 0c3d c335 87bd 9be0 963d d3b3 59bc
00000360: 5f64 40bd 4e92 f9bb b8a4 723c 8807 5cbc
00000370: c84f 943d e389 cd3c 4555 cc3c b6b7 09bd
00000380: 7bb5 3abc 7f15 31bc 26a5 b03c fdf1 18bc
00000390: b575 cebd f21b 883e 8d9b 203c 8760 abbd
000003a0: bc2e 113c 97c4 b5bb 8b5e 22bd 32db bebd
000003b0: a04d 9cbd 6133 b4bc b68f a7bd d566 9c3a
000003c0: b62d b93c 0685 0cbd f77e a93b c9d2 82bc
000003d0: f9b9 973d b76b 0fbc bfc0 d43c 8313 d13d
000003e0: 8c51 263c 6311 e33c 5d6a f83c db77 863d
000003f0: f6cf e33c 1526 16bd d32e 0b3d c507 a1bb

decom.6.bias f4 [4]
0.087837644 0.13043469 0.09825529 0.16961916
00000000: 39e4 b33d ac90 053e 123a c93d a5b0 2d3e

exp_avg f4 [32, 3, 3, 3]
0.00077448273 0.0007590237 0.00078136893 0.0008681532 0.0008402705 0.000877375 0.0010103269 0.0009945155
0.0010036791 0.00074008206 0.0007057302 0.00074609317 0.00082424853 0.00077089266 0.00083149096 0.0009686799
0.0009337867 0.0009659195 0.000651813 0.0006249718 0.0006316749 0.00073217956 0.0006881034 0.0007240304
0.00087891286 0.00084613316 0.00086529023 -6.6907305e-05 -7.530127e-05 -4.9404465e-05 -6.048336e-05 -4.954189e-05
-2.5271229e-05 4.4376998e-06 1.51322665e-05 2.941721e-05 -9.92133e-05 -0.0001125864 -8.598528e-05 -9.736978e-05
-8.39329e-05 -5.892212e-05 -3.5080247e-05 -2.5767402e-05 -1.3606957e-05 -0.00013706178 -0.00014488396 -0.00011731151
-0.0001315228 -0.0001233949 -9.226351e-05 -7.514266e-05 -6.748631e-05 -5.0944633e-05 -0.00047537108 -0.00050234393
-0.00023818723 -0.00047299635 -0.00051450176 -0.00022210542 -0.00023258153 -0.00025539842 2.4235244e-06 -0.000379718
-0.0004060444 -0.00015895674 -0.00036917638 -0.00041028878 -0.00013679531 -0.00015965576 -0.00017989516 6.419775e-05
-0.00033159205 -0.00035779175 -0.00013358993 -0.00032162186 -0.00036277136 -0.0001139195 -0.00012912939 -0.00014902207
7.416858e-05 -0.0013855856 -0.0013347218 -0.0014034102 -0.0014052455 -0.001356822 -0.0014228151 -0.0014618775
-0.0014408805 -0.0014810612 -0.001171065 -0.0011015685 -0.0011734535 -0.001193187 -0.001107821 -0.0011890215
-0.0012312979 -0.0011958822 -0.0012500245 -0.0010807302 -0.0010559367 -0.0010797277 -0.0011239318 -0.0010347731
-0.0011160601 -0.0011549433 -0.0011400902 -0.0011573031 -0.00011011894 -9.7144075e-05 -6.815546e-05 -0.000117894364
-0.00012323623 -0.00010264 -0.00010549947 -0.000111856476 -6.183504e-05 -0.00011780143 -0.0001084464 -9.259571e-05
-0.00012795752 -0.00012876888 -0.00012674951 -0.00011661676 -0.00011726549 -8.515481e-05 -0.00011633099 -0.0001281944
-0.00010988756 -0.00012226898 -0.00013201346 -0.00013375288 -0.00011016446 -0.00011979086 -7.867903e-05 0.0019366766
0.0019943235 0.0018676376 0.0019260505 0.0020101566 0.0018970675 0.0017750384 0.0018511147 0.0017787616
0.0015725413 0.001615642 0.0015153561 0.0015503342 0.0016264512 0.0015274814 0.0013909215 0.001452348
0.0013730093 0.0014336653 0.0014638813 0.0013599865 0.0014308151 0.0014780958 0.001384848 0.0012713181
0.0013413852 0.0012414755 0.0003865706 0.0004152799 0.0005009345 0.00038762606 0.00042085003 0.0004966038
0.0003347813 0.00035738354 0.0004305103 0.00029886246 0.00032735837 0.00040347697 0.00029082398 0.0003280686
0.00039364558 0.0002463442 0.00026122233 0.00032791213 0.00024284227 0.00026461712 0.00033914592 0.00024180555
0.00026641565 0.00032748046 0.00020128493 0.00021078091 0.00026982735 -0.0012503606 -0.0013036755 -0.0012888033
-0.0012968493 -0.0013284448 -0.0013119301 -0.00096873066 -0.0010250412 -0.0010067895 -0.00088709174 -0.00092422916
-0.0009319336 -0.0008987632 -0.0009276511 -0.00093433727 -0.0006286799 -0.0006744887 -0.00066812424 -0.0006785233
-0.0007027732 -0.0007002992 -0.00071232824 -0.0007086115 -0.00072260224 -0.0004485155 -0.0004734649 -0.0004926824
-0.00045169907 -0.00042964352 -0.00041862007 -0.0004627933 -0.00042252734 -0.00041712463 -0.0004733798 -0.00045465803
-0.00042869925 -0.00040285726 -0.00037895917 -0.00037024828 -0.0004130202 -0.00037373087 -0.00036632488 -0.00041474824
-0.00039627327 -0.00037021216 -0.00036591652 -0.00033896425 -0.00033442327 -0.00037558872 -0.00034183636 -0.00033233516
-0.0003795894 -0.00035813794 -0.00034577702 -0.000121902565 -0.00013382308 -0.00015312403 -0.00018274637 -0.00019509801
-0.0002058503 -0.00017646619 -0.00019219147 -0.00020040499 -0.00013760563 -0.0001532767 -0.00016597437 -0.00018175179
00000000: a806 4b3a 38f9 463a c8d4 4c3a c694 633a
00000010: 9945 5c3a a4ff 653a f26c 843a 675a 823a
00000020: e28d 833a 1102 423a c100 393a 7795 433a
00000030: 6212 583a bb15 4a3a 6af8 593a 02ef 7d3a
00000040: 5dc9 743a c335 7d3a 6ede 2a3a 26d5 233a
00000050: fc96 253a bdef 3f3a d661 343a dccc 3d3a
00000060: d866 663a 09cf 5d3a a5d4 623a 9650 8cb8
00000070: 10eb 9db8 a437 4fb8 83af 7db8 33cb 4fb8
00000080: 8dfd d3b7 8de7 9436 97e0 7d37 fac4 f637
00000090: bc10 d0b8 5d1c ecb8 ff52 b4b8 0133 ccb8
000000a0: 2205 b0b8 2523 77b8 2123 13b8 1327 d8b7
000000b0: 6f49 64b7 3eb8 0fb9 feeb 17b9 2305 f6b8
000000c0: 62e9 09b9 9163 01b9 987d c1b8 e995 9db8
000000d0: 7087 8db8 62ad 55b8 3a3b f9b9 bbaf 03ba
000000e0: e6c1 79b9 7ffc f7b9 a1df 06ba f8e4 68b9
000000f0: 21e1 73b9 ffe6 85b9 d5a3 2236 e314 c7b9
00000100: 5be2 d4b9 a0ad 26b9 048e c1b9 071c d7b9
00000110: b670 0fb9 4469 27b9 3da2 3cb9 e8a1 8638
00000120: 88d9 adb9 ff95 bbb9 4614 0cb9 5b9f a8b9
00000130: 5932 beb9 11e8 eeb8 e866 07b9 cf42 1cb9
00000140: f48a 9b38 8a9c b5ba d5f1 aeba a2f2 b7ba
00000150: 3730 b8ba 64d7 b1ba c17d baba 789c bfba
00000160: eddb bcba 2b20 c2ba 6c7e 99ba 8162 90ba
00000170: 91ce 99ba b664 9cba 4e34 91ba f1d8 9bba
00000180: 8063 a1ba 26bf 9cba ddd7 a3ba 4aa7 8dba
00000190: 5b67 8aba a685 8dba e550 93ba 39a1 87ba
000001a0: c348 92ba 7761 97ba 146f 95ba a6b0 97ba
000001b0: a8ef e6b8 d4b9 cbb8 afee 8eb8 0e3e f7b8
000001c0: f938 01b9 6e40 d7b8 993f ddb8 7d94 eab8
000001d0: 6fad 81b8 290c f7b8 b86d e3b8 f12f c2b8
000001e0: 562c 06b9 2206 07b9 10e8 04b9 2590 f4b8
000001f0: 6eec f5b8 2495 b2b8 baf6 f3b8 ec6b 06b9
00000200: 6f73 e6b8 5435 00b9 186d 0ab9 0440 0cb9
00000210: 1808 e7b8 3a38 fbb8 7c00 a5b8 15d8 fd3a
00000220: 32b3 023b 85cb f43a 8873 fc3a d5bc 033b
00000230: 06a7 f83a 68a8 e83a 1aa1 f23a 5625 e93a
00000240: bb1d ce3a f3c3 d33a ea9e c63a 9534 cb3a
00000250: a52e d53a c535 c83a 954f b63a b65c be3a
00000260: 8cf6 b33a d3e9 bb3a b5df bf3a 9341 b23a
00000270: 308a bb3a aabc c13a ca83 b53a 5ba2 a63a
00000280: 6bd1 af3a 01b9 a23a a1ac ca39 edb9 d939
00000290: 2551 033a 4a3a cb39 89a5 dc39 842e 023a
000002a0: 9685 af39 355f bb39 1db6 e139 a4b0 9c39
000002b0: 4ca1 ab39 c389 d339 bc79 9839 9f00 ac39
000002c0: 3762 ce39 c227 8139 abf4 8839 9feb ab39
000002d0: 7aa3 7e39 4fbc 8a39 65cf b139 2f8d 7d39
000002e0: b4ad 8b39 afb1 ab39 0310 5339 1205 5d39
000002f0: 9d77 8d39 24e3 a3ba 17e0 aaba 10ed a8ba
00000300: 0bfb a9ba 361f aeba 12f5 abba 6af2 7dba
00000310: ad5a 86ba 40f6 83ba b88b 68ba f847 72ba
00000320: 014d 74ba fa9a 6bba 9d2d 73ba 50ee 74ba
00000330: fecd 24ba 2cd0 30ba 0f25 2fba eede 31ba
00000340: 503a 38ba 4994 37ba 8abb 3aba 1dc2 39ba
00000350: 046d 3dba bb26 ebb9 623b f8b9 5b27 01ba
00000360: 06d2 ecb9 c741 e1b9 3c7a dbb9 11a3 f2b9
00000370: a986 ddb9 85b1 dab9 f62f f8b9 2b5f eeb9
00000380: 0ac3 e0b9 9636 d3b9 0aaf c6b9 e21d c2b9
00000390: a28a d8b9 4ff1 c3b9 4b0f c0b9 9172 d9b9
000003a0: e6c2 cfb9 0919 c2b9 7cd8 bfb9 03b7 b1b9
000003b0: 8855 afb9 aaea c4b9 8038 b3b9 453d aeb9
000003c0: a003 c7b9 76c4 bbb9 6849 b5b9 f1a5 ffb8
000003d0: dc52 0cb9 eb8f 20b9 9b9f 3fb9 3993 4cb9
000003e0: 85d9 57b9 c809 39b9 0187 49b9 ce23 52b9
000003f0: 3b4a 10b9 e7b8 20b9 6809 2eb9 a094 3eb9

exp_avg_sq f4 [32, 3, 3, 3]
0.0010117762 0.0009551404 0.0009867651 0.0010047761 0.00094812823 0.0009788004 0.0010227634 0.0009657519
0.000997126 0.0010410865 0.0009829346 0.001013205 0.0010335719 0.00097547047 0.0010047636 0.0010495043
0.0009911428 0.0010209819 0.0010185674 0.00096262014 0.0009886177 0.0010107185 0.0009550734 0.0009809007
0.0010249823 0.0009685885 0.0009959657 2.358825e-06 2.3209236e-06 2.018628e-06 2.5995746e-06 2.4594578e-06
2.1211736e-06 1.9179733e-06 1.8250432e-06 1.6022957e-06 1.8523979e-06 1.811048e-06 1.5266396e-06 2.0752425e-06
1.918368e-06 1.5990265e-06 1.5007905e-06 1.4009291e-06 1.1997292e-06 1.4371101e-06 1.4023063e-06 1.157835e-06
1.6083977e-06 1.4884017e-06 1.2148253e-06 1.1562596e-06 1.0829742e-06 9.0938477e-07 1.1586044e-05 1.24575545e-05
3.0186034e-06 1.4178735e-05 1.5333897e-05 3.7028362e-06 8.650153e-06 9.377081e-06 2.3494326e-06 9.534906e-06
1.0319178e-05 2.5045788e-06 1.1828374e-05 1.2882809e-05 2.9855833e-06 7.225977e-06 7.874994e-06 2.0742e-06
7.4588056e-06 8.108977e-06 2.1292362e-06 9.366465e-06 1.0236079e-05 2.4246194e-06 5.7269244e-06 6.2509353e-06
1.8894766e-06 0.00046141533 0.000447443 0.00046084594 0.00047362523 0.00046003205 0.00047270829 0.0004806247
0.00046722198 0.00047880938 0.00044629243 0.0004337657 0.00044580293 0.00045835236 0.00044504818 0.00045735124
0.00046322876 0.00045141668 0.00046242744 0.00043514793 0.00042451342 0.00043500116 0.00044771883 0.00043421832
0.0004475131 0.00045093673 0.00044039683 0.00045050864 1.3739575e-06 1.2969589e-06 1.1531296e-06 2.70542e-06
2.640445e-06 2.1079343e-06 3.0826136e-06 3.1241984e-06 2.2234387e-06 1.3977847e-06 1.3150545e-06 1.2212804e-06
2.6305777e-06 2.5577156e-06 2.142183e-06 2.9648352e-06 2.9825462e-06 2.1926994e-06 1.2500691e-06 1.2268908e-06
1.1803868e-06 2.1502783e-06 2.1237852e-06 1.8472031e-06 2.422188e-06 2.4477365e-06 1.7748239e-06 0.0009826436
0.0010158785 0.0009914477 0.0010290323 0.0010651052 0.0010374604 0.0010026289 0.0010387027 0.0010131875
0.0007683111 0.0007914173 0.0007723598 0.0008022803 0.00082833134 0.0008063751 0.0007825332 0.000807853
0.0007875853 0.00055625715 0.00056953816 0.00055744004 0.00057761726 0.0005918158 0.0005774919 0.0005647697
0.000579208 0.0005656373 6.826436e-05 7.166164e-05 8.0750644e-05 6.8386464e-05 7.134194e-05 8.019365e-05
6.610205e-05 6.945425e-05 7.7500874e-05 7.3496165e-05 7.727513e-05 8.572185e-05 7.3642506e-05 7.710857e-05
8.5249645e-05 7.165596e-05 7.518173e-05 8.261906e-05 7.697579e-05 8.102975e-05 8.871335e-05 7.728565e-05
8.098131e-05 8.825397e-05 7.5447766e-05 7.911722e-05 8.575281e-05 0.00044297925 0.000442587 0.00045670458
0.00044485365 0.0004435154 0.00045742415 0.00042213264 0.0004206874 0.0004360608 0.0004223299 0.00042214183
0.0004365702 0.00042391563 0.0004229459 0.0004378195 0.00040489066 0.00040368282 0.00041971833 0.00039777945
0.00039706982 0.00041051075 0.00040014985 0.0003977429 0.00041247808 0.00038322998 0.00038088395 0.00039712313
1.6182637e-05 1.4000276e-05 1.0169727e-05 1.5535386e-05 1.3310146e-05 9.606408e-06 1.5953581e-05 1.3751531e-05
9.80575e-06 1.4602763e-05 1.2545643e-05 8.913896e-06 1.3972659e-05 1.190586e-05 8.35291e-06 1.4329739e-05
1.2278417e-05 8.51465e-06 1.22118e-05 1.0453486e-05 7.2468015e-06 1.1619946e-05 9.882554e-06 6.71158e-06
1.19514e-05 1.01233845e-05 6.908066e-06 1.0124464e-05 1.0009172e-05 9.871476e-06 7.445619e-06 7.401594e-06
7.4305144e-06 7.0104215e-06 6.9582215e-06 6.9803277e-06 9.775235e-06 9.713284e-06 9.637536e-06 7.1802574e-06
00000000: 939d 843a 6362 7a3a 5856 813a b1b2 833a
00000010: cf8b 783a 174b 803a 3f0e 863a 832a 7d3a
00000020: ffb1 823a 1175 883a d0d5 803a 85cd 843a
00000030: eb78 873a b7b6 7f3a 46b2 833a 858f 893a
00000040: 3ce9 813a 78d2 853a 7381 853a 5858 7c3a
00000050: 8194 813a 167a 843a e45d 7a3a 9191 803a
00000060: b358 863a e0e8 7d3a 108b 823a 4e4c 1e36
00000070: 2ac1 1b36 c477 0736 5a74 2e36 2a0d 2536
00000080: 7c59 0e36 88b6 0036 02f4 f435 760e d735
00000090: e89f f835 2313 f335 f0e6 cc35 6544 0b36
000000a0: 50bd 0036 229e d635 c56e c935 8f07 bc35
000000b0: 6206 a135 bae2 c035 e136 bc35 e866 9b35
000000c0: 20e0 d735 18c5 c735 140d a335 c730 9b35
000000d0: b65a 9135 721c 7435 ae61 4237 ca00 5137
000000e0: 3693 4a36 34e1 6d37 4ba1 8037 3e7e 7836
000000f0: 2020 1137 4252 1d37 f2aa 1d36 1cf8 1f37
00000100: 8820 2d37 5614 2836 7b72 4637 3e23 5837
00000110: ee5b 4836 ab76 f236 d71e 0437 7c32 0b36
00000120: a746 fa36 cb0b 0837 00e4 0e36 a924 1d37
00000130: a0bb 2b37 a5b6 2236 e829 c036 20bf d136
00000140: ec99 fd35 1eea f139 c896 ea39 b29d f139
00000150: e750 f839 7530 f139 d5d5 f739 5bfc fb39
00000160: 79f5 f439 b508 fb39 5bfc e939 0c6b e339
00000170: a8ba e939 034f f039 5b55 e939 a5c8 ef39
00000180: 83dd f239 1fac ec39 f671 f239 9124 e439
00000190: 3a91 de39 de10 e439 cebb ea39 cca7 e339
000001a0: 31a0 ea39 b46b ec39 10e5 e639 3f32 ec39
000001b0: d268 b835 2b13 ae35 3bc5 9a35 c38e 3536
000001c0: 8032 3136 0976 0d36 e6de 4e36 52a9 5136
000001d0: 6336 1536 849b bb35 ee80 b035 e0ea a335
000001e0: fb88 3036 38a5 2b36 6cc2 0f36 7bf7 4636
000001f0: c127 4836 4a26 1336 0cc8 a735 a6ab a435
00000200: c86d 9e35 804d 1036 5a86 0e36 6aed f735
00000210: df8c 2236 cb43 2436 7c36 ee35 0ccc 803a
00000220: 3a27 853a 77f3 813a 98e0 863a 009b 8b3a
00000230: 65fb 873a a56a 833a 1425 883a eecc 843a
00000240: 7c68 493a 1e77 4f3a 3078 4a3a 1f50 523a
00000250: 6024 593a eb62 533a ea22 4d3a 19c6 533a
00000260: f475 4e3a c9d1 113a 0f4d 153a 2b21 123a
00000270: 3d6b 173a 1624 1b3a d362 173a 0e0d 143a
00000280: fed5 173a 4747 143a 2629 8f38 0d49 9638
00000290: ac58 a938 b46a 8f38 6a9d 9538 a32d a838
000002a0: 45a0 8a38 f7a7 9138 f787 a238 f421 9a38
000002b0: c50e a238 91c5 b338 8570 9a38 59b5 a138
000002c0: 0ec8 b238 0046 9638 e2aa 9d38 c543 ad38
000002d0: 106e a138 84ee a938 9e0b ba38 6b14 a238
000002e0: 82d4 a938 fd14 b938 b639 9e38 bceb a538
000002f0: 30d6 b338 ab3f e839 060b e839 da71 ef39
00000300: 3f3b e939 a187 e839 6ed2 ef39 af51 dd39
00000310: b58f dc39 179f e439 296c dd39 eb52 dd39
00000320: 76e3 e439 fe40 de39 d6be dd39 238b e539
00000330: 8147 d439 64a5 d339 a40d dc39 0e8d d039
00000340: cf2d d039 d239 d739 34cb d139 2688 d039
00000350: df41 d839 42ec c839 61b1 c739 f734 d039
00000360: f3bf 8737 bae2 6a37 a59e 2a37 fd51 8237
00000370: a44e 5f37 352b 2137 0ed4 8537 60b6 6637
00000380: 6083 2437 64fe 7437 207b 5237 e48c 1537
00000390: 1d6c 6a37 48bf 4737 7a23 0c37 c369 7037
000003a0: 66ff 4d37 25da 0e37 48e1 4c37 6161 2f37
000003b0: 8d29 f336 4af3 4237 3fcd 2537 0934 e136
000003c0: df82 4837 9bd7 2937 d6cb e736 3edc 2937
000003d0: 11ed 2737 ab9d 2537 61d5 f936 355b f836
000003e0: a253 f936 103b eb36 ab7a e936 8f38 ea36
000003f0: 5100 2437 3df6 2237 e7b0 2137 f1ed f036

exp_avg f4 [32]
0.0011894067 -0.00030606674 -0.0011215492 -0.0021256946 -0.0002758786 0.008888049 0.0009535484 -0.002286124
-0.001188281 -0.00044380606 -0.0026408592 0.0044564498 -0.0015636096 0.0005584857 -0.0006343498 0.00051913224
-0.0020030057 -0.0005270734 -0.0057873735 0.0020057166 -0.0010910417 0.0042386423 0.0024787076 0.0010537908
-0.0031174812 0.00055650057 -4.8387075e-05 -0.0006411952 0.0030539997 -0.0007662212 0.00032561444 0.0017952402
00000000: dee5 9b3a 9577 a0b9 f200 93ba 3d4f 0bbb
00000010: cda3 90b9 2e9f 113c 8df7 793a ccd2 15bb
00000020: 18c0 9bba a4ae e8b9 4412 2dbb 6907 923b
00000030: 08f2 ccba 5767 123a 7f4a 26ba 6016 083a
00000040: dc44 03bb 4c2b 0aba 02a4 bdbb 5772 033b
00000050: 4901 8fba 4fe4 8a3b d071 223b 5a1f 8a3a
00000060: a84e 4cbb 1fe2 113a 3af3 4ab8 e215 28ba
00000070: 9d25 483b 3cdc 48ba 3bb7 aa39 444e eb3a

exp_avg_sq f4 [32]
0.003515344 1.8495672e-05 7.9834266e-05 0.0016612937 1.5073705e-05 0.011005569 0.00048857625 0.0015649928
8.225638e-05 4.0038947e-05 0.0011388409 0.0029544309 0.00048902555 0.006799229 9.569276e-05 0.0006244114
9.2502465e-05 0.006530974 0.0067109684 0.0005782626 6.835666e-05 0.0027444314 0.0025005594 0.0005883632
0.0058433106 0.007910699 3.7921282e-06 0.00037169686 0.0019494302 0.00045517823 5.3261618e-05 0.0004523958
00000000: b061 663b 2727 9b37 b26c a738 c4bf d93a
00000010: 12e5 7c37 b450 343c cc13 003a 7220 cd3a
00000020: 0f81 ac38 7eef 2738 2945 953a 209f 413b
00000030: f331 003a 11cc de3b a9ae c838 8aaf 233a
00000040: e2fd c138 c801 d63b afe7 db3b 8c96 173a
00000050: b45a 8f38 ebdb 333b 6de0 233b 633c 1a3a
00000060: 3e79 bf3b e09b 013c 447c 7e36 4fe0 c239
00000070: 0684 ff3a fda4 ee39 3a65 5f38 892f ed39

exp_avg f4 [32, 32, 3, 3]
3.0358922e-06 2.0119514e-05 6.5006316e-06 5.465379e-05 7.2861134e-05 5.4429423e-05 9.973923e-06 2.04484e-05
7.348051e-06 -2.5315141e-05 -2.3516148e-05 -2.0529618e-05 -2.2861774e-05 -1.8827328e-05 -1.7781696e-05 -1.5603897e-05
-2.1080026e-05 -2.147132e-05 -2.2429618e-05 4.0269286e-05 -8.063443e-06 4.3051336e-05 0.00010709655 5.0007737e-05
3.3634763e-06 6.124648e-05 6.3913103e-06 0.000268949 0.0002690097 0.00025556132 0.0002745482 0.00028312553
0.00027071862 0.00026063336 0.00025466664 0.00024308612 5.156494e-06 4.685032e-06 3.953402e-06 1.526274e-05
1.659897e-05 2.0432095e-05 7.980292e-07 2.9818239e-06 7.270351e-06 0.00022632374 0.0002342654 0.00020962018
0.00022736004 0.0002420087 0.00021415496 0.00022521552 0.00023737855 0.00020717598 6.8037596e-05 8.715525e-05
5.569396e-05 5.9682392e-05 7.8535486e-05 5.0066097e-05 7.315832e-05 8.5351814e-05 5.5786968e-05 0.00025865666
0.00025914493 0.00023998624 0.00031139288 0.00032333354 0.00029763381 0.00026044634 0.00027281302 0.00024096905
-1.8206329e-06 4.0881554e-05 1.2821054e-05 -8.020347e-06 3.1574837e-05 5.351476e-06 -1.838931e-06 3.7664584e-05
8.611205e-06 2.2380631e-05 -8.855328e-06 -4.818893e-06 1.7079185e-05 -1.3502812e-05 -4.4261883e-06 1.5001811e-05
-1.8159995e-05 -6.9091807e-06 6.849686e-05 8.136161e-05 7.258933e-05 6.6675355e-05 7.002601e-05 6.4148284e-05
7.120966e-05 8.095642e-05 7.5334145e-05 0.00018248269 0.00014214362 0.00013278463 0.00019356987 0.00015116332
0.00013628262 0.00018117393 0.00014322899 0.00013084695 0.00017547299 0.00016038376 0.00016570081 0.0002053841
0.0001944147 0.00019461139 0.00018816486 0.00017517932 0.00017018116 0.00064873707 0.0005914942 0.0005432024
0.00067649165 0.0006246879 0.00056650135 0.00057135645 0.0005290978 0.00047348885 2.6636751e-05 4.4198263e-05
2.5172245e-05 3.4738365e-05 4.8767324e-05 2.8310982e-05 -5.6000167e-06 1.2367742e-05 1.4939727e-06 -9.1337366e-05
-9.007472e-05 -8.009739e-05 -0.00010444402 -0.000101170466 -9.0935195e-05 -9.426534e-05 -8.925947e-05 -8.0737926e-05
9.5860276e-05 0.00011009578 7.657638e-05 0.000103197286 0.00011372846 7.457839e-05 8.91668e-05 0.00010001517
6.625812e-05 0.00026848036 0.0002138712 0.00019805833 0.00029758541 0.0002292673 0.000222292 0.00023172885
0.00016686546 0.00016500046 0.00038836244 0.00035457927 0.00032528423 0.00042501072 0.00037221293 0.0003465897
0.00037110996 0.00032995574 0.00030461006 0.00016204664 0.00017754728 0.0001614562 0.00013814437 0.00015781088
0.00014352797 0.00016291876 0.00016981164 0.00014919211 4.468181e-05 1.5900792e-05 6.323609e-06 3.5879228e-05
1.0607986e-05 3.8239727e-06 4.226491e-05 1.1188195e-05 6.6654534e-06 0.00019409315 0.00020721027 0.00018156006
0.00019584023 0.0002127341 0.00018624152 0.00018475365 0.00020214042 0.00017585795 0.00017130555 0.00018893884
0.00015651253 0.00017697575 0.00018513229 0.0001469427 0.00016462117 0.0001549487 0.00012887213 0.00027706253
0.0001700445 0.0001893743 0.00028849146 0.00018078671 0.000198526 0.00025493014 0.00014929542 0.00016650604
0.0004045841 0.00042651664 0.00035811588 0.0003833218 0.0004043961 0.0003463325 0.00036444093 0.00038066672
0.0003245703 0.00042683768 0.0005098656 0.00045087445 0.0004967003 0.0005890477 0.000504221 0.00039383047
0.00046883136 0.00037599765 9.055707e-05 9.431531e-05 8.099352e-05 9.508053e-05 9.688963e-05 8.3957704e-05
7.7223136e-05 7.857074e-05 7.100199e-05 -8.530709e-05 -8.862464e-05 -7.763453e-05 -8.1973456e-05 -8.666151e-05
-7.7599085e-05 -8.783209e-05 -9.3983545e-05 -8.1392674e-05 9.874011e-05 8.318994e-05 7.294141e-05 9.9184486e-05
00000000: 3bbc 4b36 54c6 a837 0020 da36 0f3c 6538
00000010: 06cd 9838 264b 6438 ac55 2737 9b88 ab37
00000020: 478f f636 da5b d4b7 8b44 c5b7 0537 acb7
00000030: 49c7 bfb7 61ef 9db7 e729 95b7 1de5 82b7
00000040: 03d5 b0b7 4f1d b4b7 3d27 bcb7 d1e6 2838
00000050: 3948 07b7 0592 3438 0699 e038 66bf 5138
00000060: 15b8 6136 7471 8038 f074 d636 b901 8d39
00000070: df09 8d39 dcfc 8539 3cf1 8f39 7770 9439
00000080: 3def 8d39 9ea5 8839 c784 8539 efe4 7e39
00000090: f205 ad36 1e34 9d36 77a7 8436 7c08 8037
000000a0: 043e 8b37 9765 ab37 2638 5635 581b 4836
000000b0: d7f3 f336 5151 6d39 24a5 7539 7dcd 5b39
000000c0: 7f67 6e39 b7c3 7d39 c98e 6039 d527 6c39
000000d0: d2e8 7839 613d 5939 68af 8e38 1ec7 b638
000000e0: ef98 6938 7b53 7a38 6bb3 a438 10fe 5138
000000f0: 936c 9938 e8fe b238 cdfc 6938 4f9c 8739
00000100: d8dd 8739 d1a4 7b39 7242 a339 1885 a939
00000110: bc0b 9c39 848c 8839 5808 8f39 a3ac 7c39
00000120: 785c f4b5 3c78 2b38 021a 5737 218f 06b7
00000130: 396f 0438 d490 b336 30d1 f6b5 0afa 1d38
00000140: d878 1037 0abe bb37 5891 14b7 fab1 a1b6
00000150: 4545 8f37 238a 62b7 ab84 94b6 4ab0 7b37
00000160: 4b56 98b7 69d5 e7b6 f9a5 8f38 afa0 aa38
00000170: 1a3b 9838 0fd4 8b38 eeda 9238 5987 8638
00000180: 6556 9538 26c7 a938 b6fc 9d38 d358 3f39
00000190: 630c 1539 1a3c 0b39 04f9 4a39 9881 1e39
000001a0: 16e7 0e39 82f9 3d39 bd2f 1639 f633 0939
000001b0: 2cff 3739 b02c 2839 f9bf 2d39 605c 5739
000001c0: ccdb 4b39 9910 4c39 1f4e 4539 57b0 3739
000001d0: a872 3239 0210 2a3a 810e 1b3a b265 0e3a
000001e0: 9656 313a 18c2 233a 4381 143a 15c7 153a
000001f0: 27b3 0a3a 993e f839 fd71 df37 8661 3938
00000200: fc28 d337 09b4 1138 848b 4c38 5f7d ed37
00000210: c7e7 bbb6 0c7f 4f37 8384 c835 608c bfb8
00000220: 7fe6 bcb8 f5f9 a7b8 f508 dbb8 7b2b d4b8
00000230: 76b4 beb8 52b0 c5b8 d030 bbb8 d851 a9b8
00000240: 9808 c938 39e3 e638 a297 a038 9f6b d838
00000250: 8181 ee38 f866 9c38 10ff ba38 3cbf d138
00000260: 0ff4 8a38 d3c2 8c39 9d42 6039 e1ad 4f39
00000270: 3d05 9c39 7967 7039 0e17 6939 3dfc 7239
00000280: 9bf8 2e39 f903 2d39 209d cb39 d3e6 b939
00000290: e98a aa39 f9d3 de39 9325 c339 7bb6 b539
000002a0: 8991 c239 e9fd ac39 12b4 9f39 10eb 2939
000002b0: fc2b 3a39 924c 2939 d9da 1039 097a 2539
000002c0: ff7f 1639 2cd5 2a39 770f 3239 7470 1c39
000002d0: ba68 3b38 b162 8537 632f d436 077d 1638
000002e0: f4f8 3137 ad4f 8036 9a45 3138 eeb4 3b37
000002f0: cfa7 df36 7c85 4b39 9546 5939 2861 3e39
00000300: 765a 4d39 6011 5f39 d449 4339 6eba 4139
00000310: a8f5 5339 8266 3839 7ca0 3339 e21d 4639
00000320: 831d 2439 9192 3939 1220 4239 a114 1a39
00000330: 299e 2c39 ba79 2239 d921 0739 b442 9139
00000340: f94d 3239 c792 4639 ab40 9739 9091 3d39
00000350: 6b2b 5039 25a8 8539 2f8c 1c39 2098 2e39
00000360: 5c1e d439 189e df39 80c1 bb39 95f8 c839
00000370: 2005 d439 f693 b539 6f12 bf39 3994 c739
00000380: 172b aa39 2fc9 df39 80a8 053a 5863 ec39
00000390: fe34 023a 526a 1a3a b32d 043a 087b ce39
000003a0: 7bcd f539 8d21 c539 75e9 bd38 26cb c538
000003b0: 11db a938 f965 c738 3931 cb38 7312 b038
000003c0: dbf2 a138 58c6 a438 e7e6 9438 e5e6 b2b8
000003d0: fedb b9b8 b9cf a2b8 2ae9 abb8 0bbe b5b8
000003e0: b1bc a2b8 7f32 b8b8 0819 c5b8 5cb1 aab8
000003f0: b112 cf38 4276 ae38 1ff8 9838 4401 d038
